1Global Air Quality (2023) - 6 Cities/datasets/models/best_model.pth (torch, 274786 bytes, 9 tensors)

conv.0.weight f4 [16, 1, 1, 3]
-0.5210323 0.0143808955 0.1737923 0.06128889 -0.4345269 -0.7510332 -0.37640145 -0.109653756
0.29341322 -0.10055855 -0.15665802 -0.1185627 0.026845785 -0.124205545 0.20582068 -0.25131923
-0.043101512 0.20294406 -0.1919447 0.15751883 -0.5646871 -0.049420577 0.1291611 -0.3834577
-0.35439596 0.20505683 -0.15059116 0.32356843 -0.23084095 -0.22198345 -0.4003931 0.5114469
-0.5211991 -0.50324255 -0.4559909 0.36669567 0.11484707 0.35482532 0.25064972 -0.47882098
0.22604324 -0.23996708 -0.15923312 -0.14925613 0.37233233 0.34119445 -0.43450314 0.13209385
00000000: 5f62 05bf d99d 6b3c 9cf6 313e 0f0a 7b3d
00000010: 4f7a debe b643 40bf b1b7 c0be 2692 e0bd
00000020: 423a 963e a4f1 cdbd f66a 20be 00d1 f2bd
00000030: b1eb db3c 7a5f febd a8c2 523e eaac 80be
00000040: 368b 30bd 91d0 4f3e 278d 44be 9e4c 213e
00000050: 558f 10bf 3b6d 4abd cf42 043e 9154 c4be
00000060: 6373 b5be 6bfa 513e 9234 1abe c3aa a53e
00000070: 9261 6cbe a14f 63be 5300 cdbe 2fee 023f
00000080: 4e6d 05bf 81d4 00bf a477 e9be 89bf bb3e
00000090: f134 eb3d aaab b53e 2955 803e 0628 f5be
000000a0: e177 673e eeb9 75be 020e 23be 99d6 18be
000000b0: 58a2 be3e 0ab1 ae3e 3277 debe 9c43 073e

conv.0.bias f4 [16]
-0.77795386 0.45636535 0.21724904 -0.20273933 0.16278483 -0.48225883 0.18889998 -0.10963914
-0.13725647 -0.2151105 -0.10713492 -0.7001529 -0.5944344 -0.34808195 0.13229288 0.7693768
00000000: fc27 47bf b8a8 e93e 8876 5e3e e69a 4fbe
00000010: 11b1 263e a1ea f6be ff6e 413e 7c8a e0bd
00000020: f68c 0cbe ed45 5cbe 8e69 dbbd 383d 33bf
00000030: da2c 18bf cc37 b2be c977 073e e1f5 443f

conv.2.weight f4 [32, 16, 1, 3]
0.045896605 0.07700912 0.15123928 0.13303806 0.07489189 -0.06558542 0.10355854 -0.121306874
0.20324211 0.12545696 -0.1371142 0.13520849 0.096891455 0.11927839 0.13845168 -0.01860311
-0.05729431 0.059406776 0.110119864 -0.013269429 0.08349121 0.03373087 -0.026088852 0.10666603
-0.03256276 -0.12888643 0.14627062 -0.07524601 -0.015361084 0.08738271 -0.06163081 0.10787738
-0.050357137 0.05411477 0.029111354 -0.03692614 -0.00038681636 -0.076378375 0.11535804 0.1328506
0.008118077 -0.07821378 0.07735349 0.12654181 0.0010249808 0.014728045 0.15411855 -0.086157836
0.0011572093 -0.12610063 0.05427587 0.011661574 -0.04997675 -0.003686607 -0.08403823 -0.06395556
0.01700148 0.0896723 0.065997064 0.049768418 0.057448626 -0.11518124 -0.116668485 0.06800464
0.0008275062 -0.079879045 0.1119231 -0.08605865 -0.06902884 -0.075420044 -0.045486093 -0.016294777
-0.12791267 -0.1144043 0.014796346 -0.02858878 -0.032881133 0.037846744 0.08626059 -0.12289406
0.073340595 -0.023297936 0.034622505 0.07943113 -0.07153268 0.13436353 -0.14215538 0.041522503
0.11393899 0.06233293 -0.028364025 0.032929286 0.10642353 -0.06845711 -0.10182336 -0.015941828
0.24507722 -0.0019896762 -0.05635936 -0.10991574 -0.075668946 0.028309537 -0.032997146 0.030171521
-0.05601883 0.051573694 0.12148544 -0.055754706 -0.12112236 0.014307331 0.0481103 0.08273973
-0.090961404 -0.018190183 -0.13833 0.10966345 0.026781825 -0.16890723 -0.027927613 0.05986762
0.011805188 0.12626514 -0.00029981125 0.023267092 0.31177548 0.070559315 -0.22608112 -0.030549992
0.015227062 0.10825768 -0.033668905 0.06557777 -0.12538555 -0.028263196 -0.06761307 -0.0007021295
-0.03951623 0.075243995 0.15240516 0.08795738 0.025840359 -0.11472648 0.11240418 -0.10015138
-0.121394165 0.055536512 -0.043994684 0.1251953 0.0824261 0.04796418 -0.035304572 0.0831564
-0.048212387 -0.11957382 -0.080137625 0.015286371 -0.11624624 -0.19225003 -0.0044387537 0.010828371
-0.000398779 -0.10203571 0.14391464 -0.14417955 0.015658129 -0.049643233 -0.15090615 -0.08834792
0.10826642 -0.004735139 -0.017393354 -0.12032715 0.00394289 0.08794814 -0.06334907 0.044383656
-0.09840523 0.03781318 0.1375209 -0.11730146 0.009992869 0.03987771 0.002418886 -0.057456534
0.09798237 0.0778088 -0.15283571 0.069283664 -0.05818055 -0.11152123 -0.09971942 -0.013605659
-0.09526771 0.12368746 -0.2040884 0.13690463 -0.04410964 -0.17887186 0.023195943 -0.028533442
-0.014494741 -0.12152708 -0.061050206 -0.094546124 0.117197655 0.20706683 -0.107368 0.077740535
0.083818085 -0.04250532 -0.0038352148 0.12668665 0.11167014 0.017693082 -0.115157 0.19867264
0.056784943 -0.2474855 0.09808962 -0.035468575 -0.047248393 -0.14551455 0.023898898 -0.03249318
0.0012805542 0.081408486 0.045420285 -0.06471973 -0.033929758 0.022195162 -0.07379164 0.12425776
-0.13349873 -0.00015479453 0.008813892 0.1516236 0.094756335 0.014220497 -0.18299264 -0.21081613
-0.087022655 0.13527255 -0.09938712 -0.22093877 0.08460826 0.003419309 0.078260265 0.16345872
0.025099488 -0.04870931 -0.09160411 -0.0154221505 0.12857553 0.013218831 0.013444854 0.03564776
00000000: 14fe 3b3d f5b6 9d3d 78de 1a3e 213b 083e
00000010: eb60 993d a651 86bd 8016 d43d bd6f f8bd
00000020: b31e 503e ca77 003e aa67 0cbe 1874 0a3e
00000030: 076f c63d 3b48 f43d 47c6 0d3e 8d65 98bc
00000040: 70ad 6abd 8554 733d 8686 e13d 0568 59bc
00000050: 71fd aa3d 6129 0a3d 4ab8 d5bc b873 da3d
00000060: 8760 05bd cefa 03be f7c7 153e 951a 9abd
00000070: 0ead 7bbc b5f5 b23d 9770 7cbd d1ee dc3d
00000080: 4943 4ebd 73a7 5d3d ef7a ee3c dd3f 17bd
00000090: 9dcd cab9 446c 9cbd d640 ec3d fd09 083e
000000a0: af01 053c 8c2e a0bd 826b 9e3d 2d94 013e
000000b0: a658 863a e64d 713c 41d1 1d3e 8573 b0bd
000000c0: 80ad 973a 8620 01be 6050 5e3d 3010 3f3c
000000d0: 6cb4 4cbd 009b 71bb 3c1c acbd 22fb 82bd
000000e0: b046 8b3c 1ca6 b73d 7829 873d f8d9 4b3d
000000f0: 404f 6b3d 24e4 ebbd e3ef eebd 0446 8b3d
00000100: 00ed 583a a097 a3bd f037 e53d 843f b0bd
00000110: fe5e 8dbd d375 9abd a04f 3abd a07c 85bc
00000120: 8afb 02be cd4c eabd 606c 723c 0433 eabc
00000130: 5eae 06bd 3005 1b3d 64a9 b03d e2af fbbd
00000140: 9833 963d 50db bebc 54d0 0d3d caac a23d
00000150: ba7f 92bd 9896 093e 2e91 11be 8013 2a3d
00000160: d858 e93d d050 7f3d ac5b e8bc dce0 063d
00000170: 94f4 d93d 3e33 8cbd c488 d0bd 7098 82bc
00000180: 86f5 7a3e 3a65 02bb 13d9 66bd 811b e1bd
00000190: 52f8 9abd 67e9 e73c 0428 07bd 442a f73c
000001a0: 0074 65bd f03e 533d 5ccd f83d 0c5f 64bd
000001b0: 000f f8bd 4c69 6a3c 4e0f 453d 7373 a93d
000001c0: f949 babd 9403 95bc 61a6 0dbe 3b97 e03d
000001d0: 8f65 db3c 04f6 2cbe 73c8 e4bc c037 753d
000001e0: 8c6a 413c a64b 013e fc2f 9db9 a19a be3c
000001f0: 09a1 9f3e 6781 903d cf81 67be fa43 fabc
00000200: ed7a 793c 34b6 dd3d 68e8 09bd a34d 863d
00000210: 1265 00be 3888 e7bc b978 8abd 1d0f 38ba
00000220: c5db 21bd 8619 9a3d 1910 1c3e 0023 b43d
00000230: 29af d33c b7f5 eabd 2a34 e63d 2b1c cdbd
00000240: 819d f8bd 417a 633d c533 34bd 3233 003e
00000250: 04cf a83d 1776 443d 879b 10bd e74d aa3d
00000260: 5a7a 45bd 1ee3 f4bd 321f a4bd b073 7a3c
00000270: 8212 eebd 31dd 44be f772 91bb 7b69 313c
00000280: 3613 d1b9 19f8 d0bd 5c5e 133e cea3 13be
00000290: 7a45 803c b456 4bbd 2487 1abe c1ef b4bd
000002a0: c9ba dd3d 3a29 9bbb 827c 8ebc 156e f6bd
000002b0: 5c33 813b 281e b43d 28bd 81bd a3cb 353d
000002c0: ae88 c9bd fee1 1a3d 47d2 0c3e bf3b f0bd
000002d0: 21b9 233c cf56 233d 2c86 1e3b 8b57 6bbd
000002e0: fbaa c83d 385a 9f3d f780 1cbe 98e4 8d3d
000002f0: ba4e 6ebd 3e65 e4bd b239 ccbd 45ea 5ebc
00000300: b81b c3bd da4f fd3d 8dfc 50be ba30 0c3e
00000310: 4fac 34bd 2f2a 37be 6b05 be3c f7be e9bc
00000320: 5a7b 6dbc 31e3 f8bd c80f 7abd 66a1 c1bd
00000330: 5305 f03d 5409 543e c1e3 dbbd 6e36 9f3d
00000340: d1a8 ab3d 0f1a 2ebd 3a58 7bbb 25ba 013e
00000350: 50b3 e43d 15f1 903c 6fd7 ebbd d770 4b3e
00000360: 5497 683d d76c 7dbe 36e3 c83d 7f47 11bd
00000370: 8887 41bd c401 15be 9fc7 c33c 9217 05bd
00000380: 45d8 a73a 7eb9 a63d 9f0a 3a3d c78b 84bd
00000390: eef9 0abd a1d2 b53c 1220 97bd da7a fe3d
000003a0: e4b3 08be 5750 22b9 2468 103c 3843 1b3e
000003b0: 9c0f c23d 16fd 683c 6c62 3bbe 2fe0 57be
000003c0: ef38 b2bd e384 0a3e 798b cbbd c63d 62be
000003d0: 1847 ad3d 7c16 603b eb46 a03d b961 273e
000003e0: 719d cd3c 6a83 47bd f09a bbbd 30ad 7cbc
000003f0: 4ea9 033e cc93 583c ce47 5c3c 6303 123d

conv.2.bias f4 [32]
-0.17541766 -0.12713316 -0.27428508 -0.18335609 -0.24727675 -0.26436493 -0.062271174 -0.08391233
-0.003213491 0.12233271 -0.30015796 0.35756534 -0.25521296 0.050336108 -0.048424534 -0.13382624
-0.06902508 0.05163028 -0.020072693 -0.10739316 0.039215572 -0.083031386 -0.24274652 -0.20912571
-0.20186837 0.04553838 -0.14183351 -0.17426409 0.013621881 -0.09226136 -0.07639093 -0.034157775
00000000: b0a0 33be 322f 02be 186f 8cbe b3c1 3bbe
00000010: 1e36 7dbe d75a 87be 0f10 7fbd 3ada abbd
00000020: 6f99 52bb 9289 fa3d 4eae 99be ce12 b73e
00000030: 46ab 82be 3c2d 4e3d ce58 46bd bf09 09be
00000040: 055d 8dbd 467a 533d 7d6f a4bc f2f0 dbbd
00000050: 82a0 203d 5c0c aabd 8b92 78be 0d25 56be
00000060: 95b6 4ebe 7486 3a3d ce3c 11be 4972 32be
00000070: 4f2e 5f3c 86f3 bcbd d972 9cbd 06e9 0bbd

lstm.weight_ih_l0 f4 [256, 192]
-0.005722517 0.039762687 -0.0048869145 0.14370406 -0.10600775 -0.016945176 -0.08322047 -0.093839675
0.05685155 -0.115605205 0.12174757 -0.089426085 0.09345739 0.11694297 0.11927182 -0.015812028
-0.09045613 -0.04261584 0.09628348 -0.011511505 -0.034460813 -0.06686382 0.094848216 -0.04881762
0.033364877 0.07524882 -0.07591617 0.09166385 -0.05714583 0.112456635 0.12901062 -0.076961935
-0.15676561 0.041951414 0.095179304 0.10307347 -0.08926238 0.054937594 0.0047726757 -0.079765014
0.06868913 -0.07659981 0.08625251 0.14829172 -0.09586848 0.13164034 0.029470162 0.03295128
-0.019499702 0.058381665 0.09865284 -0.06128223 -0.052120518 -0.023012849 0.16110791 0.6112858
-0.055740103 -0.13662244 0.017537568 0.028024843 0.054425057 -0.0977549 -0.11786037 0.09556632
0.12650028 -0.11409186 -0.015811745 0.029694028 -0.08743042 -0.038773727 -0.010012218 -0.092779495
0.048350904 0.031526066 -0.05348034 -0.09252973 0.023531476 0.09625496 0.06959001 -0.05041923
-0.04280757 0.045232113 0.14190482 -0.06962811 -0.0052089607 -0.013738466 0.11736809 0.016028022
0.030410256 -0.00248105 0.03469083 0.0096887415 -0.07358696 0.086905286 0.10508688 0.06570226
-0.050275534 0.089058414 0.059975162 0.021236107 0.05552675 0.106166855 0.020969093 0.15197997
0.10024667 0.11683145 -0.07718178 0.040914763 -0.12172215 0.14534362 -0.07571672 -0.019563599
-0.010178172 -0.029302554 0.09021964 -0.011166256 0.1409596 -0.12237873 -0.09307496 0.11209029
-0.010690301 -0.10517216 0.06968056 0.0274492 -0.081241794 -0.048916336 0.0130108595 0.13036305
-0.1079584 -0.096408516 0.041851252 0.14141576 0.10856393 0.05812877 0.033951618 0.07417935
-0.019658664 0.15124486 0.057619944 -0.036129754 -0.080843255 0.02327337 0.11347279 0.0068567717
0.004714597 0.022692379 0.054473553 -0.023570005 0.029653348 -0.10417717 0.124522254 -0.11384291
0.028586868 -0.03566027 -0.05167551 0.04608597 0.0926108 -0.09146771 -0.022071732 0.11840403
-0.05431256 0.04160171 0.044304743 0.062018115 -0.020004455 0.118050955 0.042886887 -0.05547316
-0.09749095 0.060087435 -0.045849964 0.034122035 0.103476875 0.038405508 0.12058223 -0.06453821
0.029895095 -0.00722351 -0.02663051 -0.044496108 0.10575086 0.036046192 0.09532942 0.09010379
0.12580445 -0.029538482 -0.07134023 -0.01534529 -0.070315376 0.088669084 -0.08273132 -0.09139394
-0.099854685 0.15842523 -0.06639327 0.1188627 -0.02035974 0.13088399 0.010131314 0.10936789
-0.009771958 -0.019173041 -0.023221299 0.10096395 0.12014768 -0.051236052 0.025227483 0.14117083
0.047401763 0.052291743 -0.041235916 0.024491176 0.10614723 0.090369925 -0.023393553 -0.095415406
-0.100762054 -0.020659806 0.045728665 0.53580326 0.015061761 -0.039484095 0.051592916 0.051194556
0.12026453 0.063185446 0.16091944 -0.03301751 -0.08345321 0.058294028 0.08884818 0.10226201
0.077902265 0.06562664 -0.0068631256 0.0810878 0.0053629624 -0.027585847 -0.09564898 -0.10580382
-0.061365373 0.14021726 0.061788965 -0.005519413 0.006683853 -0.028374765 0.074502006 0.047519762
-0.032065365 0.067267925 -0.049267735 0.08855002 -1.1485021 -0.5194771 0.18654995 0.2973875
00000000: f483 bbbb 33de 223d 6922 a0bb 2827 133e
00000010: 971a d9bd 9cd0 8abc 7e6f aabd 042f c0bd
00000020: 2cdd 683d 6cc2 ecbd ca56 f93d 0625 b7bd
00000030: 9766 bf3d cc7f ef3d c944 f43d 3a88 81bc
00000040: 1041 b9bd f28d 2ebd 4630 c53d c09a 3cbc
00000050: c826 0dbd e6ef 88bd c83f c23d fcf4 47bd
00000060: 9ca9 083d 0e1c 9a3d f079 9bbd 42ba bb3d
00000070: bf11 6abd aa4f e63d 5c1b 043e 389e 9dbd
00000080: 2a87 20be 3fd5 2b3d 5eed c23d 2f18 d33d
00000090: 32cf b6bd 3e06 613d 1b64 9c3b d75b a3bd
000000a0: e3ac 8c3d 5ce0 9cbd 28a5 b03d c9d9 173e
000000b0: b256 c4bd bacc 063e 696b f13c ecf7 063d
000000c0: d7bd 9fbc 9d21 6f3d 800a ca3d 1303 7bbd
000000d0: 537c 55bd 7185 bcbc 79f9 243e 3a7d 1c3f
000000e0: bc4f 64bd c1e6 0bbe f2aa 8f3c 5b94 e53c
000000f0: cfec 5e3d b933 c8bd c760 f1bd 46b8 c33d
00000100: 4a89 013e fea8 e9bd a287 81bc e440 f33c
00000110: b80e b3bd 33d1 1ebd 490a 24bc 2d03 bebd
00000120: 990b 463d 7a21 013d 330e 5bbd 3a80 bdbd
00000130: 15c5 c03c 5221 c53d 3585 8e3d 6584 4ebd
00000140: fe56 2fbd 4f45 393d 7f4f 113e 2f99 8ebd
00000150: eeaf aabb 4e17 61bc ae5e f03d 334d 833c
00000160: ee1e f93c 1d99 22bb f917 0e3d 87bd 1e3c
00000170: c3b4 96bd 66fb b13d ca37 d73d e88e 863d
00000180: b8ed 4dbd 4264 b63d 84a8 753d 58f7 ad3c
00000190: 0470 633d 026e d93d 60c7 ab3c a3a0 1b3e
000001a0: 204e cd3d 5445 ef3d 7b11 9ebd 3d96 273d
000001b0: 7649 f9bd f5d4 143e 5e11 9bbd d743 a0bc
000001c0: 59c2 26bc e90b f0bc 13c5 b83d acf2 36bc
000001d0: b757 103e b3a1 fabd 169e bebd 988f e53d
000001e0: 5f26 2fbc 8064 d7bd aeb4 8e3d 25dd e03c
000001f0: 1962 a6bd 7f5c 48bd 802b 553c e47d 053e
00000200: 4b19 ddbd d471 c5bd 386c 2b3d 4bcf 103e
00000210: c456 de3d 6f18 6e3d da10 0b3d 58eb 973d
00000220: 350b a1bc efdf 1a3e e402 6c3d cbfc 13bd
00000230: 2691 a5bd cba7 be3c 6c64 e83d c5ae e03b
00000240: e87c 9a3b 5ee5 b93c a91f 5f3d e215 c1bc
00000250: 94eb f23c d75a d5bd 8605 ff3d 7926 e9bd
00000260: 022f ea3c 8110 12bd b3a9 53bd a4c4 3c3d
00000270: bbaa bd3d 6c53 bbbd c7cf b4bc d07d f23d
00000280: d976 5ebd 8e66 2a3d e478 353d b506 7e3d
00000290: 62e0 a3bc b3c4 f13d 29aa 2f3d d337 63bd
000002a0: 56a9 c7bd 3e1e 763d 2ccd 3bbd 8cc3 0b3d
000002b0: afeb d33d 184f 1d3d d1f3 f63d 9c2c 84bd
000002c0: 8fe6 f43c 32b3 ecbb 3a28 dabc 8d41 36bd
000002d0: e893 d83d 2ca5 133d 123c c33d 5688 b83d
000002e0: e2d2 003e b0fa f1bc d41a 92bd d06a 7bbc
000002f0: 8201 90bd 2398 b53d 0a6f a9bd bf2c bbbd
00000300: 9d80 ccbd 393a 223e 32f9 87bd 4a6e f33d
00000310: 78c9 a6bc 7406 063e d0fd 253c 46fc df3d
00000320: 901a 20bc c810 9dbc 983a bebc 30c6 ce3d
00000330: fd0f f63d e5dc 51bd dea9 ce3c 168f 103e
00000340: 5a28 423d de2f 563d fee6 28bd b8a1 c83c
00000350: b863 d93d de13 b93d d6a3 bfbc 2769 c3bd
00000360: 565c cebd c13e a9bc fb4d 3b3d 672a 093f
00000370: 9bc5 763c 13ba 21bd 1853 533d 62b1 513d
00000380: 404d f63d 5f67 813d 11c8 243e 5e3d 07bd
00000390: 84e9 aabd b8c5 6e3d 09f6 b53d bf6e d13d
000003a0: 398b 9f3d 4367 863d 12e4 e0bb 5c11 a63d
000003b0: cabb af3b b7fb e1bc 9de3 c3bd acaf d8bd
000003c0: 425a 7bbd 1d95 0f3e 6d16 7d3d 31dc b4bb
000003d0: 3904 db3b 3272 e8bc 8294 983d 15a4 423d
000003e0: f956 03bd c4c3 893d f7cc 49bd b659 b53d
000003f0: 1e02 93bf 74fc 04bf f306 3f3e 2d43 983e

lstm.weight_hh_l0 f4 [256, 64]
-0.060340106 0.08286313 -0.007583531 0.05808014 0.2547472 -0.09389393 -0.021248404 -0.03249712
-0.04397638 0.04948627 0.34118772 0.012800727 0.047908023 0.023669366 0.057895575 0.05150011
-0.04490255 0.05978871 -0.049049802 0.061314233 0.46149215 -0.088798195 0.07523114 -0.3354765
-0.09960143 0.087326065 0.075112194 -0.09971559 0.03755066 0.00265493 0.031395413 0.09612733
-0.055718504 0.30632377 -0.0424198 0.098603584 -0.10187142 0.011589643 -0.015369436 0.10123365
0.07010763 0.0009882168 -0.027102277 0.061974823 -0.08068118 -0.0124751935 0.048217006 0.0769619
0.096989945 -0.0899755 -0.022286087 0.08133528 -0.45918128 -0.022884216 -0.041115478 -0.12999353
0.08552967 -0.04099472 0.060668547 -0.093773544 -0.04693371 0.091661915 -0.13513884 0.007845038
0.068097256 -0.0037082138 0.07869839 -0.06611357 -0.028294807 -0.121681295 -0.10350734 -0.10159218
-0.11099115 -0.081127286 -0.15448146 0.03944375 -0.06589005 0.042167816 -0.14778261 0.1844689
0.04156063 -0.063471675 0.033059496 -0.1734876 -0.05799461 0.006245471 0.17110232 0.037727777
-0.053844336 -0.0750761 -0.06548727 -0.10440631 0.05335352 -0.0797391 0.017091442 -0.013249282
-0.064173855 -0.08769464 0.12981255 0.08770812 -0.06654239 0.06614637 -0.119070075 -0.053474866
-0.027622417 -0.14529239 0.08041674 -0.1099679 -0.067347154 0.08039729 0.017109659 0.032072175
0.013796207 0.04503341 -0.027679266 0.056434397 0.0463415 -0.086096875 -0.057975806 -0.091527626
0.014099861 -0.009955497 0.049006395 -0.013690662 -0.020309573 -0.019565566 0.076733455 0.07397934
-0.019358668 0.026210288 0.05255442 0.10117869 0.44497147 0.002342683 0.119763486 -0.07774336
-0.028874226 -0.013953484 0.34138307 -0.047728542 0.0728652 0.12647027 -0.07104422 -0.0337813
0.021035204 0.08440292 0.040017437 -0.002792755 0.54974097 -0.00986119 -0.033831224 -0.3680314
0.032119863 0.043318663 0.052922737 0.06385088 -0.14320879 -0.03216856 -0.04044597 0.047498796
-0.11357261 0.3907362 0.082574666 0.16127548 -0.076493345 -0.048189078 -0.05640303 -0.050995983
-0.066744916 -0.074024975 0.048526444 0.035288326 0.0058032675 -0.03478478 -0.069351576 -0.048659895
0.036579218 -0.12582913 -0.08287493 0.14341502 -0.10826901 -0.13299027 -0.10850524 -0.385106
0.0386078 0.055462383 -0.0781245 0.043101896 0.10422611 -0.07631282 -0.12919135 -0.048944317
-0.08181327 -0.006140049 0.104330026 -0.02501275 0.06579449 0.10355689 0.012146849 -0.09099976
-0.023039108 0.08752539 -0.06534494 0.050427534 0.13995613 -0.057449605 -0.008330851 -0.098657206
0.019508207 0.018660916 0.075393304 0.0074704336 0.027511394 -0.059953194 0.02343193 0.015104579
0.0054046563 -0.114730395 -0.08919259 0.070271805 -0.08246953 -0.04940416 -0.015023956 -0.007368553
-0.035426993 0.08045637 0.11059877 0.050318148 0.09014044 0.12732534 -0.039123833 -0.09018904
-0.013409877 0.0099603655 0.018229382 -0.019126123 0.045250766 -0.030084502 0.031535286 -0.12606674
-0.1142997 -0.052607212 -0.13499175 -0.12960915 -0.09418003 0.12106856 -0.11705199 -0.051694773
-0.06697694 -0.06407122 -0.02472707 0.07427711 -0.11195255 -0.08308802 -0.05444774 0.014816493
00000000: 3027 77bd 25b4 a93d 457f f8bb 71e5 6d3d
00000010: 3a6e 823e 764b c0bd 2211 aebc b31b 05bd
00000020: 9420 34bd 1db2 4a3d 28b0 ae3e 24ba 513c
00000030: 343b 443d 42e6 c13c e923 6d3d c8f1 523d
00000040: bceb 37bd 02e5 743d 72e8 48bd a224 7b3d
00000050: b348 ec3e d4db b5bd c912 9a3d 93c3 abbe
00000060: d6fb cbbd 02d8 b23d 6cd4 993d b037 ccbd
00000070: b9ce 193d 56fe 2d3b 7a98 003d 68de c43d
00000080: 1639 64bd 78d6 9c3e 62c0 2dbd adf0 c93d
00000090: f7a1 d0bd 7ce2 3d3c 16d0 7bbc 9753 cf3d
000000a0: 9794 8f3d 0e87 813a 9805 debc 50d9 7d3d
000000b0: 2d3c a5bd c164 4cbc 327f 453d 339e 9d3d
000000c0: aaa2 c63d 1345 b8bd 5091 b6bc 1c93 a63d
000000d0: cf19 ebbe ae77 bbbc b468 28bd 061d 05be
000000e0: 2e2a af3d 14ea 27bd 957f 783d 580c c0bd
000000f0: 903d 40bd 3eb9 bb3d d661 0abe 7988 003c
00000100: 9376 8b3d 8105 73bb 9f2c a13d 8d66 87bd
00000110: 83ca e7bc 0b34 f9bd a8fb d3bd 900f d0bd
00000120: 544f e3bd 1026 a6bd 6330 1ebe c58f 213d
00000130: 5df1 86bd 29b8 2c3d 5354 17be 6ae5 3c3e
00000140: 7b3b 2a3d 70fd 81bd 6569 073d bca6 31be
00000150: c28b 6dbd cfa6 cc3b 7235 2f3e 7188 1a3d
00000160: e18b 5cbd 80c1 99bd 311e 86bd fad2 d5bd
00000170: 3889 5a3d 414e a3bd 5a03 8c3c 8413 59bc
00000180: 956d 83bd 3f99 b3bd 95ed 043e 51a0 b33d
00000190: 6047 88bd bf77 873d 03db f3bd 7608 5bbd
000001a0: 6848 e2bc 87c7 14be 88b1 a43d da36 e1bd
000001b0: 4eed 89bd 56a7 a43d 8e29 8c3c 1d5e 033d
000001c0: 7c09 623c f474 383d a1bf e2bc c127 673d
000001d0: 96d0 3d3d 8f53 b0bd 0a78 6dbd d672 bbbd
000001e0: 1a03 673c 621c 23bc eeba 483d cc4e 60bc
000001f0: 4360 a6bc f747 a0bc 6e26 9d3d 7b82 973d
00000200: 1296 9ebc f5b6 d63c 4e43 573d c636 cf3d
00000210: 4dd3 e33e b387 193b 8f46 f53d e937 9fbd
00000220: a489 ecbc 279d 64bc c3c9 ae3e 017f 43bd
00000230: 5a3a 953d 6c81 013e a27f 91bd 435e 0abd
00000240: 0552 ac3c 70db ac3d 53e9 233d a706 37bb
00000250: d3bb 0c3f d490 21bc 9c92 0abd 9d6e bcbe
00000260: 1e90 033d e96e 313d 83c5 583d 40c4 823d
00000270: 53a5 12be 2ec3 03bd acaa 25bd 198e 423d
00000280: c298 e8bd 930e c83e e81c a93d 6625 253e
00000290: 8ba8 9cbd e961 45bd dd06 67bd 2ae1 50bd
000002a0: 8fb1 88bd 689a 97bd aac3 463d 7e8a 103d
000002b0: 5629 be3b 7c7a 0ebd 3308 8ebd 994f 47bd
000002c0: 17d4 153d 5ad9 00be 55ba a9bd 63db 123e
000002d0: 25bc ddbd 9a2e 08be ff37 debd 9d2c c5be
000002e0: 3623 1e3d 862c 633d bdff 9fbd 9d8b 303d
000002f0: 8074 d53d e549 9cbd bd4a 04be d679 48bd
00000300: b78d a7bd 7732 c9bb fbaa d53d 8ae7 ccbc
00000310: 43bf 863d a215 d43d 9403 473c 155e babd
00000320: 83bc bcbc 8340 b33d 91d3 85bd 1a8d 4e3d
00000330: a950 0f3e 4750 6bbd 1f7e 08bc ca0c cabd
00000340: adcf 9f3c c7de 983c ce67 9a3d 8aca f43b
00000350: 935f e13c 7b91 75bd 52f4 bf3c 3279 773c
00000360: 8b19 b13b c5f7 eabd 9baa b6bd aaea 8f3d
00000370: c9e5 a8bd 045c 4abd 0a27 76bc e773 f1bb
00000380: e51b 11bd 4fc6 a43d 9c81 e23d 671a 4e3d
00000390: 8d9b b83d 9361 023e 5040 20bd 08b5 b8bd
000003a0: 1ab5 5bbc cd30 233c c955 953c 63ae 9cbc
000003b0: de58 393d c673 f6bc 252b 013d a417 01be
000003c0: f615 eabd a97a 57bd 473b 0abe 43b8 04be
000003d0: 76e1 c0bd cbf2 f73d f4b8 efbd e6bd 53bd
000003e0: 352b 89bd c637 83bd 6d90 cabc 991e 983d
000003f0: 6147 e5bd 0d2a aabd 9804 5fbd e0c0 723c

lstm.bias_ih_l0 f4 [256]
0.09792262 0.11231947 -0.051046412 -0.10667376 0.03421712 -0.176443 0.0620472 -0.06442393
0.04618849 -0.04064809 -0.039943025 -0.11628794 -0.048588622 0.026304793 0.011100621 -0.096829556
0.12232886 -0.04751776 -0.098975465 -0.0776141 -0.118723795 0.047831733 0.09657458 0.14121616
0.09743636 -0.06924041 -0.012409856 0.019921366 0.021260926 -0.05697835 0.13141198 -0.03785365
-0.05397182 0.03494868 -0.595212 -0.08933763 -0.07487307 0.07468606 0.040181052 0.116730966
0.06682961 0.023021052 0.014813839 -0.15858737 -0.09453153 0.11099689 -0.046057537 -0.11509425
-0.01592825 0.024623793 -0.07435203 0.15870214 -0.20484203 -0.08013818 0.08393272 0.06252519
-0.14098339 0.07819714 -0.02090062 0.043318283 0.10001989 0.09751043 -0.052017692 -0.031138169
0.07676537 -0.03591093 0.032546744 -0.017858578 -0.0029917946 0.0034061463 -0.062048815 0.11374535
-0.014177771 0.101612486 0.0068312716 0.092443116 -0.015276842 -0.047880206 0.080326006 0.016024813
0.028754745 0.043125167 -0.052148454 0.1144551 0.10306727 0.11701606 -0.00121082 0.011343784
0.022451987 -0.07085448 -0.098472245 0.113902844 0.11834068 0.0108281 0.094044134 -0.029768022
0.06040537 -0.09274673 -0.122732125 -0.036981653 -0.110464506 -0.08460583 -0.04695093 0.11614292
0.058726534 -0.038056374 0.011476357 0.08511372 -0.086443424 -0.05888718 0.12072558 0.108150795
-0.06523672 0.10351254 0.007130207 0.047731422 0.042581074 0.014053185 -0.108800806 0.38586193
0.052082732 0.104637414 0.07572623 0.0820687 0.048499443 0.0023619093 -0.009810909 -0.017694924
0.03223554 0.14536975 -0.03615729 -0.0781464 0.090367734 0.037261657 -0.033455767 0.056639895
-0.10796033 0.04062882 -0.12462706 0.07825896 -0.08634261 -0.15317976 0.027070984 -0.034819048
0.06644241 0.100316435 0.0052578743 -0.012582082 -0.10943141 0.0485422 0.11113586 0.066038266
-0.08491675 -0.015610241 0.08583712 -0.104721695 -0.023047363 -0.06245197 0.016749494 0.08350145
-0.11972035 -0.03572139 -0.08821873 -0.080644384 -0.09188751 -0.04590343 0.083027795 -0.097096115
-0.10161514 -0.06394918 -0.037941266 0.047116455 0.034674637 -0.014877478 0.15248606 -0.06955019
-0.15209235 -0.018779917 -0.007961237 0.05480908 0.08965313 -0.124428034 0.030407581 0.024911145
-0.053586528 0.060943 0.08736498 0.093335636 0.09530783 -0.08899044 -0.052734103 0.056704745
-0.119598985 0.0299395 -0.06849603 -0.03907516 0.044849195 -0.11586912 0.066627674 0.08721911
-0.13070948 0.07289057 0.11199006 0.10805444 -0.13457723 0.0069255065 -0.090868466 -0.13061059
-0.07667099 -0.16205259 -0.021492738 0.04496924 -0.23198283 0.025158387 0.00419579 0.1616508
0.076689325 -0.111326404 -0.14189766 0.121982984 -0.008841761 -0.013422695 -0.13702962 -0.024061725
-0.04923537 0.0781896 -0.17442212 0.047078345 -0.23920502 0.09629788 0.17731504 -0.15464225
0.028382022 -0.053639963 0.15201917 0.09214162 -0.05639391 -0.07736248 0.036688156 -0.03301542
-0.066768706 -0.20117861 0.060519166 -0.046521224 -0.042389464 -0.14694251 0.15733933 0.5429676
-0.13454227 -0.023573913 0.087836616 0.0852811 -0.029542373 -0.08940286 0.10236795 0.119801976
00000000: a88b c83d c007 e63d 0b16 51bd c677 dabd
00000010: 4027 0c3d 79ad 34be 3425 7e3d b2f0 83bd
00000020: 2430 3d3d 9d7e 26bd 4c9b 23bd 5f28 eebd
00000030: dd04 47bd 267d d73c 61df 353c 934e c6bd
00000040: 8e87 fa3d fca1 42bd a6b3 cabd 24f4 9ebd
00000050: 7625 f3bd 35eb 433d e5c8 c53d f89a 103e
00000060: b78c c73d ebcd 8dbd b552 4bbc 2232 a33c
00000070: 652b ae3c 2162 69bd dd90 063e 6e0c 1bbd
00000080: 8e11 5dbd 5926 0f3d d05f 18bf a6f6 b6bd
00000090: 0d57 99bd 01f5 983d e394 243d a510 ef3d
000000a0: f6dd 883d a596 bc3c bfb5 723c ba64 22be
000000b0: bf99 c1bd 5652 e33d d4a6 3cbd 89b6 ebbd
000000c0: f67b 82bc d6b7 c93c e145 98bd d082 223e
000000d0: 1cc2 51be 7c1f a4bd ebe4 ab3d 350d 803d
000000e0: f35d 10be d225 a03d c737 abbc 836e 313d
000000f0: 3ad7 cc3d 8cb3 c73d 8110 55bd 7915 ffbc
00000100: 2a37 9d3d 5717 13bd bc4f 053d 274c 92bc
00000110: fc11 44bb a739 5f3b e626 7ebd 52f3 e83d
00000120: e249 68bc 351a d03d dcd8 df3b d152 bd3d
00000130: b84b 7abc 091e 44bd f681 a43d 7846 833c
00000140: 128f eb3c 04a4 303d 9e99 55bd 6f67 ea3d
00000150: ef14 d33d 1ea6 ef3d 61b4 9eba 47db 393c
00000160: 3bed b73c 271c 91bd d1ab c9bd e545 e93d
00000170: 995c f23d 5868 313c 369a c03d 11dc f3bc
00000180: 9f6b 773d fff1 bdbd fb5a fbbd 137a 17bd
00000190: 373b e2bd d245 adbd 9e4f 40bd 57dc ed3d
000001a0: 3c8b 703d 00e1 1bbd 5407 3c3c 1a50 ae3d
000001b0: 4009 b1bd af33 71bd f93e f73d 2a7e dd3d
000001c0: d49a 85bd 62fe d33d 83a4 e93b 0682 433d
000001d0: 7e69 2e3d 543f 663c f5d2 debd b28f c53e
000001e0: b454 553d 244c d63d 5b16 9b3d a213 a83d
000001f0: 5aa7 463d 43ca 1a3b efbd 20bc f2f4 90bc
00000200: 6a09 043d cfdb 143e ab19 14bd 380b a0bd
00000210: b812 b93d ae9f 183d ea08 09bd 3cff 673d
00000220: 4e1a ddbd 686a 263d 793c ffbd 3c46 a03d
00000230: 65d4 b0bd 28db 1cbe f8c3 dd3c 6b9e 0ebd
00000240: f512 883d b472 cd3d 3f4a ac3b 1425 4ebc
00000250: 931d e0bd 30d4 463d 339b e33d 123f 873d
00000260: d5e8 adbd 19c2 7fbc 5fcb af3d 5478 d6bd
00000270: d3cd bcbc a3cd 7fbd 3c36 893c cf02 ab3d
00000280: f12f f5bd 9850 12bd 06ac b4bd e228 a5bd
00000290: 852f bcbd 3c05 3cbd 7a0a aa3d 54da c6bd
000002a0: 991b d0bd caf7 82bd 4d68 1bbd 2ffd 403d
000002b0: fe06 0e3d aac0 73bc 4e25 1c3e 5470 8ebd
000002c0: 19be 1bbe 57d8 99bc d96f 02bc 7c7f 603d
000002d0: 0f9c b73d 20d4 febd 5219 f93c 7512 cc3c
000002e0: 8c7d 5bbd 5e9f 793d 69ec b23d c126 bf3d
000002f0: c030 c33d 9f40 b6bd b7ff 57bd 3c43 683d
00000300: 50f0 f4bd af43 f53c a647 8cbd 460d 20bd
00000310: cab3 373d ca4c edbd 1774 883d ef9f b23d
00000320: b5d8 05be a747 953d 0b5b e53d a54b dd3d
00000330: 9dce 09be 5cef e23b 3f19 babd c8be 05be
00000340: ae05 9dbd 1df1 25be 8a11 b0bc aa31 383d
00000350: e88c 6dbe f618 ce3c d67c 893b ca87 253e
00000360: 4b0f 9d3d 19ff e3bd 9f4d 11be 37d2 f93d
00000370: 09dd 10bc ddea 5bbc 7e51 0cbe 181d c5bc
00000380: 07ab 49bd de21 a03d b69b 32be 39d5 403d
00000390: 29f2 74be d337 c53d 1392 353e 8a5a 1ebe
000003a0: 6a81 e83c 94b5 5bbd eaaa 1b3e bfb4 bc3d
000003b0: 4dfd 66bd 3870 9ebd 5246 163d 2d3b 07bd
000003c0: 08be 88bd c401 4ebe f2e2 773d 0a8d 3ebd
000003d0: 93a0 2dbd 1978 16be 901d 213e edff 0a3f
000003e0: 73c5 09be 141e c1bc afe3 b33d dba7 ae3d
000003f0: d902 f2bc d918 b7bd 4aa6 d13d bd5a f53d

lstm.bias_hh_l0 f4 [256]
0.088118866 -0.067796126 -0.09576376 0.09780431 -0.033651337 -0.098564364 -0.045049656 -0.12059831
-0.025918512 -0.04061683 0.13764024 -0.04695624 0.12202526 0.01268985 -0.013660873 -0.043701544
0.09442021 -0.019380795 0.0712606 0.03846452 0.05308289 -0.06369527 -0.024719723 0.101314604
-0.008001651 -0.06866575 0.13201544 -0.06410897 -0.07759999 -0.097722 -0.062399555 0.12243359
-0.24580558 0.120812036 -0.53830993 0.09185326 -0.025929555 -0.031895537 -0.13384941 0.0017838499
0.11272195 0.075685754 0.02589669 -0.049534813 -0.09060644 0.004118169 0.11055291 -0.04883941
-0.041343298 -0.018439014 0.07088425 -0.04410558 -0.112112 0.014973975 0.04481903 0.14683437
-0.025311202 0.07787055 0.06927725 -0.082176276 -0.08398695 -0.01956145 0.02665346 -0.07690735
-0.009966095 0.12697084 0.14378856 -0.071795575 -0.08758532 -0.060788903 0.062308446 -0.050570216
-0.057147454 0.095273815 0.14438546 0.09329163 -0.0083748475 -0.07636459 -0.10861024 -0.083323844
-0.06904885 0.10175286 0.08829389 -0.09104205 0.085345864 0.06827847 -0.03591466 0.06058072
-0.11815942 -0.008322663 -0.0634033 0.11689343 0.06910577 0.11833295 0.09753901 -0.071817756
0.040659 -0.08995109 0.045249876 -0.03539616 -0.05220297 -0.11399779 0.10595884 -0.04600602
0.062482785 0.11505812 -0.093430296 -0.053303674 -0.04403689 0.020164387 0.06572988 -0.005184926
-0.046524454 0.02632954 -0.016560508 -0.039221488 -0.016276315 0.0266326 -0.12493825 0.35609362
-0.068993516 0.0026051574 -0.08352368 -0.06780777 -0.07424728 0.045423195 0.019395648 -0.011535057
0.09848367 0.0016752448 0.076316305 0.105840445 -0.05593295 -0.08212983 -0.075065404 -0.07659659
0.056249604 -0.11341754 -0.13188095 -0.07568585 -0.016158862 -0.008038121 -0.12241293 0.06383009
0.016464587 -0.03529198 -0.104258 -0.055532403 -0.08854527 0.11269013 0.052838665 -0.06963269
0.02039914 0.058553223 0.06066233 -0.09437274 0.0332515 0.054078687 -0.016368987 0.054190032
-0.09810003 -0.07614563 -0.030869184 0.08880103 -0.103940554 -0.11121424 -0.11794093 0.09753163
-0.10817451 -0.027658692 0.08662066 0.007255261 0.040402394 -0.07959749 -0.05696156 -0.029403064
-0.10623192 0.005060631 -0.017799681 -0.03403507 0.06669288 -0.057703666 0.050888516 0.09883608
-0.04485403 0.13380957 -0.0059765214 0.11543023 0.048292655 -0.06841188 0.002961704 -0.10431917
0.07535941 -0.023828164 0.1365056 -0.09827224 0.020156285 0.043128345 0.10473921 0.059004497
0.0007560596 0.047852423 -0.110017054 0.15354683 0.07497959 -0.044030108 -0.12718919 0.033734802
0.069541305 -0.0027383906 -0.034479145 -0.026621263 -0.108586356 -0.037867773 0.090011485 -0.0384893
0.098191366 -0.025623135 -0.016375864 0.09012266 -0.06351632 -0.0068944995 -0.1424813 -0.0047455905
-0.017607925 0.025211794 -0.11472925 -0.029076472 -0.11981701 -0.002242783 0.07905465 0.058830176
-0.058974035 -0.1769971 0.12346305 -0.0022475724 -0.09147679 -0.089416444 -0.115598984 0.021531058
-0.0674904 -0.049915332 -0.10014037 -0.09056848 -0.09287374 -0.021986 0.1450576 0.42621034
-0.057703223 0.070471056 0.1049931 0.12408998 0.014840041 0.043751236 0.16618596 -0.074401565
00000000: aa77 b43d b2d8 8abd ca1f c4bd a04d c83d
00000010: fcd5 09bd 1ddc c9bd fd85 38bd 3ffc f6bd
00000020: 0f53 d4bc d55d 26bd 90f1 0c3e 3055 40bd
00000030: 61e8 f93d 17e9 4f3c dbd1 5fbc 6400 33bd
00000040: 625f c13d 79c4 9ebc 14f1 913d f98c 1d3d
00000050: 726d 593d aa72 82bd 0481 cabc 087e cf3d
00000060: 5b19 03bc a1a0 8cbd 0e2f 073e 904b 83bd
00000070: beec 9ebd 7922 c8bd ad96 7fbd 76be fa3d
00000080: 75b4 7bbe 4d6c f73d aece 09bf 901d bc3d
00000090: 386a d4bc e5a4 02bd d20f 09be 12d0 e93a
000000a0: c4da e63d 2201 9b3d 4c25 d43c 04e5 4abd
000000b0: df8f b9bd b5f1 863b 9069 e23d d50b 48bd
000000c0: 9757 29bd 6a0d 97bc c32b 913d 0da8 34bd
000000d0: fa9a e5bd 6755 753c 2994 373d c05b 163e
000000e0: 7059 cfbc 987a 9f3d 3be1 8d3d 094c a8bd
000000f0: 5a01 acbd 563f a0bc 5b58 da3c 9a81 9dbd
00000100: d548 23bc a504 023e 4f3d 133e 8f09 93bd
00000110: ef5f b3bd c9fd 78bd 2437 7f3d b722 4fbd
00000120: 7313 6abd eb1e c33d c8d9 133e af0f bf3d
00000130: a836 09bc 0a65 9cbd 0c6f debd b1a5 aabd
00000140: 7c69 8dbd ce63 d03d 6dd3 b43d 4174 babd
00000150: d0c9 ae3d 95d5 8b3d 401b 13bd 7d23 783d
00000160: 91fd f1bd c75b 08bc 97d9 81bd d365 ef3d
00000170: 5387 8d3d 8c58 f23d 88c2 c73d 3015 93bd
00000180: 0d8a 263d 4738 b8bd ef57 393d 90fb 10bd
00000190: c8d2 55bd ac77 e9bd f300 d93d cf70 3cbd
000001a0: f3ed 7f3d 97a3 eb3d 6258 bfbd f454 5abd
000001b0: 0760 34bd c92f a53c 639d 863d 50e6 a9bb
000001c0: 6d90 3ebd 0cb1 d73c e7a9 87bc b6a6 20bd
000001d0: e855 85bc 9c2c da3c a0df ffbd e751 b63e
000001e0: 794c 8dbd 4abb 2a3b 770e abbd cdde 8abd
000001f0: f50e 98bd ac0d 3a3d 9fe3 9e3c 89fd 3cbc
00000200: ceb1 c93d e393 db3a b94b 9c3d e0c2 d83d
00000210: f319 65bd af33 a8bd e4bb 99bd acde 9cbd
00000220: fc65 663d 7547 e8bd cd0b 07be 2f01 9bbd
00000230: 975f 84bc 53b2 03bc a1b3 fabd 5ab9 823d
00000240: bee0 863c 538e 10bd 3885 d5bd f275 63bd
00000250: 3957 b5bd 15ca e63d 5b6d 583d 959b 8ebd
00000260: 191c a73c 81d5 6f3d 1079 783d 7f46 c1bd
00000270: ba32 083d 9d81 5d3d 4118 86bc 5ef6 5d3d
00000280: abe8 c8bd 3df2 9bbd 5fe1 fcbc 50dd b53d
00000290: c9de d4bd 4bc4 e3bd 048b f1bd aabe c73d
000002a0: 998a ddbd 7b94 e2bc 2c66 b13d 8abd ed3b
000002b0: fb7c 253d 0204 a3bd 8650 69bd b2de f0bc
000002c0: 1f90 d9bd a6d3 a53b a3d0 91bc 5c68 0bbd
000002d0: 4796 883d ae5a 6cbd 7a70 503d 926a ca3d
000002e0: dcb8 37bd 6005 093e b2d6 c3bb af66 ec3d
000002f0: 85ce 453d 871b 8cbd 2619 423b 4aa5 d5bd
00000300: 0956 9a3d 4833 c3bc 20c8 0b3e f542 c9bd
00000310: cb1e a53c 59a7 303d 8381 d63d b3ae 713d
00000320: 4d32 463a e700 443d 9f50 e1bd 613b 1d3e
00000330: e68e 993d ea58 34bd e23d 02be 812d 0a3d
00000340: ac6b 8e3d 9276 33bb 013a 0dbd d614 dabc
00000350: 8662 debd 3d1b 1bbd f157 b83d f5a6 1dbd
00000360: 8e18 c93d 9ce7 d1bc ad26 86bc 3b92 b83d
00000370: d814 82bd 41eb e1bb 9ee6 11be e680 9bbb
00000380: 7f3e 90bc f788 ce3c 2bf7 eabd c831 eebc
00000390: 9f62 f5bd a8fb 12bb 68e7 a13d e9f7 703d
000003a0: c28e 71bd ba3e 35be 32da fc3d 024c 13bb
000003b0: 2f58 bbbd f81f b7bd 29bf ecbd e761 b03c
000003c0: 6838 8abd 0574 4cbd 6516 cdbd f87b b9bd
000003d0: 9634 bebd fc1b b4bc fb89 143e 3e38 da3e
000003e0: 375a 6cbd 2153 903d 9f06 d73d e322 fe3d
000003f0: a523 733c 7f34 333d a72c 2a3e d95f 98bd

fc.weight f4 [1, 64]
1.0556817 1.2498677 -0.94531673 -0.061708804 -1.4186472 -1.0962416 -1.1422404 -1.1899146
-1.1007894 0.23570418 -1.5492156 -1.0126812 -0.9870649 -1.1564592 -1.2078987 1.0587691
1.1112617 -1.3409401 -1.0679485 -1.0362058 1.2408519 1.0475253 1.0685955 -1.0571653
-1.0657129 -1.2532588 -0.34400427 -1.1693553 1.3409946 1.0104002 -1.0910664 -1.0510292
-1.0617805 -1.4489568 -1.2494794 1.0130275 -1.1844414 -0.98035055 -0.9672929 1.0660102
-1.201177 -1.0937339 0.973479 -1.1951201 1.3065997 -0.95549524 1.2271626 -1.1785886
-1.1305306 -1.0375128 0.96598274 1.1647238 1.4565762 -1.012329 -1.2274923 -1.7902269
1.0858244 0.9541921 -0.041443635 1.0708995 1.0336725 1.0913279 -0.98182166 -1.0532423
00000000: 9420 873f aafb 9f3f 4700 72bf 5fc2 7cbd
00000010: 3b96 b5bf a551 8cbf ef34 92bf 1f4f 98bf
00000020: abe6 8cbf 705c 713e b24c c6bf 8a9f 81bf
00000030: 49b0 7cbf db06 94bf 6d9c 9abf bf85 873f
00000040: d33d 8e3f eda3 abbf 89b2 88bf 64a2 84bf
00000050: 3cd4 9e3f 4f15 863f bdc7 883f 3151 87bf
00000060: 4869 88bf c96a a0bf 5421 b0be 6fad 95bf
00000070: b6a5 ab3f cb54 813f 10a8 8bbf 2088 86bf
00000080: 6ce8 87bf 6b77 b9bf f1ee 9fbf e3aa 813f
00000090: c79b 97bf 41f8 7abf 82a0 77bf 0673 883f
000000a0: 2bc0 99bf 79ff 8bbf eb35 793f b2f9 98bf
000000b0: a93e a73f 569b 74bf aa13 9d3f fedb 96bf
000000c0: 3ab5 90bf 38cd 84bf a54a 773f ab15 953f
000000d0: 1771 ba3f ff93 81bf 781e 9dbf 2826 e5bf
000000e0: 4bfc 8a3f ef45 743f cdc0 29bd 3c13 893f
000000f0: 614f 843f a2b0 8b3f aa58 7bbf a5d0 86bf
