1Global Air Quality (2023) - 6 Cities/best_model.pth (torch, 454370 bytes, 19 tensors)

multi_conv.branch1.weight f4 [8, 1, 1, 1]
0	0x3ed2b98b	0.41157183
1	0x3f1de481	0.61676794
2	0x3f4d337c	0.80156684
3	0x3f43ed84	0.76534295
4	0x3f2a8774	0.66612935
5	0xbd813301	-0.06308556
6	0x3e8b91bf	0.27259633
7	0x3f36f3dd	0.71465856

multi_conv.branch1.bias f4 [8]
0	0x3ebb0fb3	0.36535415
1	0xbf4f0cd4	-0.8087895
2	0xbefd2997	-0.49445793
3	0xbe728187	-0.23682223
4	0xbf316e1b	-0.6930863
5	0x3f9af4c0	1.2105942
6	0x3df555f2	0.119792834
7	0x3ee21e4d	0.44163743

multi_conv.branch2.weight f4 [8, 1, 1, 3]
0	0xbe2f7870	-0.17135787
1	0x3ef19507	0.4718401
2	0x3e4ab5aa	0.19795862
3	0x3d82b1ab	0.06381544
4	0xbba75adc	-0.005107267
5	0x3ee6a7f0	0.4505
6	0xbe974261	-0.2954283
7	0x3d80c5c6	0.06287722
8	0xbb84e630	-0.004055761
9	0xbeaa3ce9	-0.33249596
10	0x3e4174a6	0.18892154
11	0xbe2acc40	-0.16679478
12	0xbda2e110	-0.079530835
13	0x3e875118	0.26429057
14	0x3f151f96	0.5825132
15	0x3eb56f8d	0.3543667
16	0x3e8d704a	0.27624732
17	0x3eda31b8	0.42616057
18	0x3ed4f982	0.4159661
19	0x3d999131	0.07498396
20	0xbee6ae93	-0.45055065
21	0x3e683507	0.22676478
22	0xbd86cc32	-0.06581916
23	0x3e7849d1	0.24246909

multi_conv.branch2.bias f4 [8]
0	0xbecef5ab	-0.40421805
1	0xbf0693f9	-0.5256954
2	0x3f43873c	0.76378226
3	0x3d668936	0.0562832
4	0x3da20904	0.07911876
5	0x3e8b15d6	0.27165097
6	0xbee5e310	-0.44899797
7	0xbed28e5b	-0.41124234

multi_conv.branch3.weight f4 [8, 1, 1, 5]
0	0x3e9b1a92	0.3029371
1	0xbe1c4a98	-0.1526283
2	0x3db164db	0.08661815
3	0xbe9954ac	-0.29947412
4	0xbeb5ec88	-0.35532022
5	0xbe66a742	-0.22524741
6	0x3ded5653	0.11588731
7	0xbe34d222	-0.17658284
8	0xbe38b7ef	-0.18038915
9	0xbeb7f4d4	-0.35928977
10	0xbd943b84	-0.07237914
11	0xbd81b991	-0.06334222
12	0xbe6fb98f	-0.23410629
13	0x3eb89ff0	0.36059523
14	0x3ea5f3d2	0.32412583
15	0x3e61b104	0.22040182
16	0x3d0b58ea	0.034020342
17	0xbe3e0d83	-0.18559842
18	0x3eb7b693	0.3588148
19	0xbd43aa47	-0.04776981
20	0x3e584934	0.21121675
21	0xbea77126	-0.32703513
22	0xbe559a97	-0.20859753
23	0x3da75130	0.08169782
24	0x3e8ae8bd	0.2713069
25	0xbe0dab5d	-0.13834901
26	0x3ea42daf	0.32066104
27	0xbe7b4a9a	-0.24540177
28	0xbe9d17da	-0.3068226
29	0xbcb7ada6	-0.02242167
30	0xbdbca315	-0.09210793
31	0xbef89272	-0.4854923
32	0xbeb2eca1	-0.3494616
33	0x3e8f712d	0.28016034
34	0xbf00113e	-0.5002631
35	0xbe9b73e0	-0.30361843
36	0xbeac78c0	-0.33685875
37	0x3eaeef99	0.34167174
38	0x3e1882b6	0.14893612
39	0x3e376c67	0.17912446

multi_conv.branch3.bias f4 [8]
0	0x3c765e36	0.01503711
1	0x3ddb46a0	0.1070683
2	0xbe8c927d	-0.27455512
3	0x3dd6be92	0.10485567
4	0xbd8fafe4	-0.0701597
5	0x3c875eee	0.016524758
6	0xbe9747c4	-0.2954694
7	0x3ded9fba	0.11602731

multi_conv.branch4.weight f4 [8, 1, 1, 7]
0	0xbe62c6c1	-0.22146131
1	0x3e9d7a07	0.30757162
2	0xbb8f035a	-0.004364413
3	0x3c32d21f	0.010914355
4	0x3eb03706	0.3441698
5	0xbeb2ee0f	-0.3494725
6	0x3e70361c	0.23458141
7	0xbe9c2865	-0.3049957
8	0x3da02f7b	0.07821556
9	0x3da04db9	0.078273244
10	0x3eb1243e	0.34597963
11	0xbe8a9ac0	-0.2707119
12	0x3e91784c	0.28412092
13	0x3d970cde	0.07375501
14	0xbe0a17ab	-0.13485591
15	0xbe38e641	-0.18056585
16	0xbeab33e0	-0.33438015
17	0xbe9512d3	-0.29115924
18	0x3dc005af	0.09376084
19	0x3d3e95a9	0.046529446
20	0x3ebe74ce	0.3719849
21	0xbc9a92f6	-0.018868905
22	0xbd552519	-0.052037332
23	0x3ca7f3fa	0.02050208
24	0xbe15d653	-0.1463254
25	0x3eb2c1f5	0.34913602
26	0x3dbbc8f5	0.09169189
27	0x3e2da36b	0.1695687
28	0x3bfe9733	0.007769489
29	0x3db5b328	0.08872062
30	0x3ddbeed9	0.10738916
31	0xbeb38b61	-0.35067275
32	0xbdfdae4f	-0.12386762
33	0x3dcda460	0.10041118
34	0x3e2b6268	0.16736758
35	0xbe794100	-0.24341202
36	0xbe841223	-0.25795087
37	0xbe5fddb3	-0.21861915
38	0xbd80db73	-0.062918566
39	0xbe884197	-0.2661254
40	0x3eb8a4cb	0.36063227
41	0x3eac28ed	0.33624974
42	0xbbe465d1	-0.0069701453
43	0xbd904ea1	-0.07046247
44	0xbc4c40e5	-0.012466644
45	0x3e42ad25	0.19011362
46	0xbed29a9f	-0.41133592
47	0xbe11b8be	-0.1423063
48	0xbdfaf79b	-0.12254258
49	0x3de46d83	0.111537
50	0x3e3d50a8	0.18487799
51	0x3eaa4eda	0.33263284
52	0xbcac4bc2	-0.021032218
53	0x3e93ccf8	0.28867316
54	0x3e682574	0.22670537
55	0x3e543045	0.20721538

multi_conv.branch4.bias f4 [8]
0	0x3ec34431	0.38137963
1	0x3eb722d7	0.35768768
2	0xbdf2e808	-0.11860663
3	0xbdbe7642	-0.092999
4	0xbeb7f7ae	-0.35931152
5	0x3e4885e8	0.19582331
6	0x3eaf65ac	0.34257257
7	0x3edee2f7	0.43532535

lstm_stack.layers.0.weight_ih_l0 f4 [256, 192]
0	0xbdcd068e	-0.10011016
1	0x3da29847	0.07939201
2	0xbcb99260	-0.022652805
3	0xbd091654	-0.03346856
4	0xbdf29fe3	-0.11846902
5	0x3de52639	0.11188931
6	0xbd204ef7	-0.039137807
7	0x3de1c82a	0.110245064
8	0x3e01a2dd	0.12659784
9	0xbd34aba6	-0.04410901
10	0x3d3371ed	0.04380982
11	0xbd51d5cb	-0.05122928
12	0x3da64078	0.08117765
13	0x3cbb2bf8	0.022848114
14	0x3dbea9a2	0.09309699
15	0x3d468486	0.048466228
16	0x3dd1f6a7	0.10252123
17	0x3d5aa6f8	0.05338189
18	0x3c6503d0	0.01397796
19	0xbd599fda	-0.053130962
20	0xbd9ae0c9	-0.075624056
21	0xbcde275f	-0.027118383
22	0x3d9b0625	0.07569531
23	0xbcce9cbe	-0.025221225
24	0x3d0f0f8a	0.03492693
25	0xba7b0c66	-0.00095767376
26	0xbd05fcae	-0.032711677
27	0xbde585eb	-0.112071835
28	0x3d74d120	0.05976975
29	0xbae4458b	-0.0017415745
30	0xbd3292c0	-0.043596983
31	0x3c52fbba	0.012877399
32	0x3bb309d2	0.005463817
33	0x3d5c1aa0	0.05373633
34	0xbda15911	-0.07878316
35	0x3bfefd27	0.007781643
36	0x3db95eea	0.090513065
37	0x3d91a627	0.07111769
38	0x3de72693	0.11286654
39	0x3c771970	0.015081748
40	0xbde95350	-0.11392844
41	0x3dc926c5	0.09821848
42	0x3d95d4a4	0.073159486
43	0x3dcc233f	0.0996766
44	0x3d98bc96	0.07457845
45	0x3d4ffc1d	0.050777543
46	0x3dfd1fa8	0.123595536
47	0x3d91aaae	0.07112633
48	0xbd4152b3	-0.04719801
49	0x3dc2a479	0.09504027
50	0xbc0a9b29	-0.008459845
51	0x3d2b4c30	0.041820705
52	0x3d8ca8f9	0.068681665
53	0xbd162311	-0.036654536
54	0x3ddd8c5e	0.108177885
55	0x3d6ca42c	0.057773754
56	0xbd825c33	-0.06365242
57	0xbd2fcae1	-0.04291809
58	0xbbcf97de	-0.0063352427
59	0xbd8e2d02	-0.06942178
60	0xbd92827c	-0.07153794
61	0xbaf55100	-0.0018716156
62	0x3db9c5d8	0.09070939
63	0x3b86d4ec	0.0041147377
64	0x3d5e47a4	0.05426754
65	0xbd65411f	-0.055970307
66	0x3d593833	0.05303211
67	0xbdbd4c70	-0.09243095
68	0x3d640e54	0.055677727
69	0x3d1560d8	0.03646931
70	0xbdae2704	-0.085035354
71	0xbd7b6f8a	-0.06138567
72	0x3db67f69	0.0891102
73	0xbd3654b0	-0.044514358
74	0x3deb7ca0	0.1149838
75	0xbce35404	-0.027750023
76	0x3d96fd51	0.07372535
77	0x3d8e968a	0.06962307
78	0xbdaf077e	-0.08546351
79	0xbd5dbd9d	-0.054135907
80	0xbd93dd8f	-0.07219993
81	0x3a63a23c	0.00086835376
82	0x3df7a838	0.12092632
83	0xbc930eb0	-0.01795134
84	0xbd3b9412	-0.045795508
85	0xbde9bb3e	-0.11412667
86	0xbc19fb29	-0.00939826
87	0x3dda6386	0.10663514
88	0xbd05ca0e	-0.032663397
89	0xbb3611bc	-0.0027781567
90	0xbd0294e0	-0.03188026
91	0xbd7095bf	-0.05873656
92	0xbdcf86b1	-0.10133112
93	0xbcf1ef50	-0.029533058
94	0x3de4a5ee	0.11164461
95	0x3df48a3d	0.11940429
96	0xbda1f303	-0.07907679
97	0xbd954e1c	-0.07290289
98	0x39d18789	0.00039964568
99	0x3d4922c7	0.049105432
100	0xbd3e450e	-0.046452574
101	0x3c997457	0.018732233
102	0x3d18a66c	0.037268087
103	0x3d36d304	0.044634834
104	0x3dd8269e	0.10554241
105	0xbd9400a0	-0.07226682
106	0x3dab7f51	0.08373893
107	0xbdea7aaa	-0.114491776
108	0x3d9f5304	0.07779506
109	0x3d446147	0.047944333
110	0xbddb1ba3	-0.10698631
111	0xbc28222b	-0.0102620525
112	0xbd0351d6	-0.032060467
113	0xbc617780	-0.013761401
114	0xbc9cb018	-0.019126937
115	0x3dd141d9	0.102176376
116	0x3d5ae681	0.053442482
117	0xbd05b858	-0.032646507
118	0xbbded1ba	-0.0067999037
119	0x3cea9758	0.02863662
120	0x3a804380	0.0009785742
121	0xbcff38ca	-0.031155009
122	0x3d9dc05d	0.07702706
123	0x3d8e0686	0.06934838
124	0x3cd73ec3	0.026275044
125	0x3d98ebc4	0.07466844
126	0xbbd08da0	-0.0063645393
127	0xbd959432	-0.07303657
128	0xbd91a07e	-0.071106896
129	0x3d46e440	0.04855752
130	0x3cb8b1cd	0.02254572
131	0xbd207a80	-0.039179325
132	0x3dc7f7f4	0.0976409
133	0x3c8c6ba0	0.017141163
134	0x3c7b3043	0.015331331
135	0x3d95cda4	0.073146135
136	0xbcc21948	-0.023693696
137	0x3d28cdb0	0.041211784
138	0xbd7d8616	-0.061895452
139	0x3d9c220c	0.076236814
140	0x39cdc600	0.00039248168
141	0x3bba9281	0.005693734
142	0x3d5f83b7	0.054568972
143	0x3d1346f5	0.03595634
144	0xbde26171	-0.11053742
145	0xbda4a104	-0.08038524
146	0xbd1cfd5f	-0.03832757
147	0x3dcb0906	0.099138305
148	0xbdc25688	-0.09489161
149	0x3c3e6584	0.011620883
150	0xbcb3f0a0	-0.021965325
151	0xbc3d2eb8	-0.011546783
152	0xbc971422	-0.018442217
153	0xbd8567f5	-0.06513969
154	0xbc424458	-0.011857115
155	0xbc68a644	-0.014199797
156	0xbd9279c1	-0.07152129
157	0x3dfd9c66	0.12383346
158	0x3de9ccbe	0.114160046
159	0x3d475e4c	0.048673913
160	0xbdf45830	-0.11930883
161	0x3c8a1338	0.016854867
162	0x3c4b5f1f	0.012412815
163	0xbdbaaacd	-0.09114609
164	0x3db6dd84	0.089289695
165	0x3cfc9b3d	0.030835742
166	0xbdb468d4	-0.08809057
167	0xbdb26254	-0.08710161
168	0x3d061348	0.03273323
169	0x3bc6d89e	0.0060683032
170	0x3db1b911	0.08677877
171	0xbd22fbe6	-0.03979101
172	0xbd530b02	-0.05152417
173	0x3dde1433	0.108436964
174	0x3dbb6fa1	0.09152151
175	0xbce289a1	-0.027653517
176	0xbc888e90	-0.016669542
177	0xbd8dd954	-0.06926218
178	0xbdf5f7de	-0.120101675
179	0xbcb4d2c8	-0.022073165
180	0xbb2e5525	-0.0026601043
181	0x3d16b109	0.036789928
182	0x3dcca286	0.099919364
183	0x3c667bb5	0.01406758
184	0x3ce9b7a0	0.028529942
185	0xba167fcc	-0.0005741089
186	0x3d628e72	0.055311628
187	0x3d8844e7	0.06653767
188	0x3de0fc54	0.10985628
189	0x3c8ba122	0.017044608
190	0xbda7e838	-0.08198589
191	0x3d0c92c1	0.034319643
192	0xbdcea82c	-0.1009067
193	0xbdc42258	-0.09576863
194	0xbc7e10ce	-0.015506936
195	0x3d9b899e	0.07594608
196	0xbd3ee54f	-0.046605404
197	0xbd5be97a	-0.053689457
198	0xbb826350	-0.003979124
199	0x3da830c5	0.08212427
200	0x3c640d6e	0.0139192175
201	0xbb9175ab	-0.004439076
202	0xbddb24a7	-0.1070035
203	0xbda45211	-0.080234654
204	0x3daafb11	0.08348668
205	0x3d96bec5	0.07360605
206	0xbda923ed	-0.082588054
207	0xbd8cb692	-0.0687076
208	0xbd97c11b	-0.07409879
209	0x3de76b0c	0.112997144
210	0x3d9b9fb6	0.07598822
211	0xbd7e0214	-0.0620137
212	0xbdc3f560	-0.09568286
213	0x3d82332c	0.063574165
214	0x3df5607e	0.11981295
215	0x3dbf336f	0.09335982
216	0x3dad3883	0.084580444
217	0xbde6147e	-0.11234377
218	0x3d94331c	0.07236311
219	0xbde0ec28	-0.10982543
220	0xbdc79d45	-0.09746794
221	0xbd7f52df	-0.06233489
222	0x3dbf2942	0.09334041
223	0x3cedcfd6	0.029029768
224	0x3c9571a4	0.018242665
225	0x3d815c8e	0.063164815
226	0x3d6d80b5	0.057984073
227	0x3db0b419	0.08628101
228	0x3d8b5fcc	0.06805381
229	0x3dc66735	0.09687654
230	0xbda802f3	-0.082036875
231	0xbcf9a0d7	-0.030472202
232	0x3c2eb131	0.010662363
233	0xbd8d3d18	-0.06896418
234	0x3d4ad4bf	0.049519297
235	0xbcce54f7	-0.025186999
236	0x3c5beb51	0.013422803
237	0x3cfb24b0	0.030657142
238	0x3baa7fa8	0.005203206
239	0x3defb485	0.11704353
240	0x3d85d41a	0.06534596
241	0x3d7ba39c	0.061435327
242	0x3d478a1b	0.048715692
243	0xbd5d5ba2	-0.054042466
244	0xbdbe21a6	-0.09283762
245	0x3aca21de	0.001542147
246	0x3d579ea6	0.052641533
247	0x3da4db11	0.08049596
248	0xbc2521df	-0.010078876
249	0x3e00ad4b	0.12566106
250	0xbc1e65a9	-0.009667792
251	0x3ddeefa3	0.10885551
252	0x3d4690c2	0.048477896
253	0xbdb4ed46	-0.08834319
254	0x3d07875c	0.033088073
255	0xbd450111	-0.04809672

lstm_stack.layers.0.weight_hh_l0 f4 [256, 64]
0	0xbd5474d8	-0.051869243
1	0x3ccdc039	0.025116073
2	0x3db6fda8	0.089351
3	0x3d90f4ab	0.07077917
4	0xbbf00737	-0.007325079
5	0xbd9a1616	-0.07523744
6	0x3d9b4da0	0.07583165
7	0x3d36f138	0.044663638
8	0xbb5a71af	-0.003333192
9	0x3dc2e009	0.095153876
10	0x3dcb7003	0.09933474
11	0x3dc1759b	0.094462596
12	0xbc6e0033	-0.014526415
13	0xbdcbe4ef	-0.09955775
14	0x3d9adc7a	0.07561584
15	0xbd8cca8f	-0.068745725
16	0x3d2520c9	0.04031447
17	0xbdee02a6	-0.11621599
18	0xbde1bbc2	-0.1102214
19	0x3dafd290	0.085850835
20	0xbc8284b3	-0.015932417
21	0x3cc4c360	0.024018943
22	0x3c3494af	0.011021777
23	0xbd4e2158	-0.050324768
24	0xbd812293	-0.06305423
25	0xbdd20c54	-0.10256258
26	0xbdadbc22	-0.08483149
27	0xbd387be1	-0.045040015
28	0xbd8d5872	-0.06901635
29	0x3d9d8506	0.07691388
30	0x3c041138	0.008060746
31	0xbdb1da66	-0.08684234
32	0xbdf18cc6	-0.117944285
33	0x3dd6352c	0.104593605
34	0x3de46e97	0.11153906
35	0x3cbd6c98	0.02312307
36	0x3c76471b	0.015031601
37	0x3d92e340	0.07172251
38	0x3d86007d	0.06543062
39	0xbcdee742	-0.027209882
40	0x3dd9758c	0.106181234
41	0xbd94af52	-0.07260002
42	0x3d65d4be	0.05611109
43	0xbdfd1325	-0.12357167
44	0x3d2d6a97	0.04233798
45	0xbcde1b4e	-0.02711263
46	0xbd91e164	-0.07123068
47	0xbdc7f4e8	-0.09763509
48	0x3d6ff9b5	0.05858775
49	0xbc8d33e0	-0.01723665
50	0x3d1c6e59	0.038191173
51	0x3dd4479d	0.10365222
52	0x3d2de1d3	0.04245169
53	0x3deba949	0.11506898
54	0x3dbc563e	0.09196137
55	0xbda86c1e	-0.08223747
56	0xbdb2d2c2	-0.08731605
57	0xbd9cb33d	-0.076513745
58	0xbdf1ec34	-0.1181263
59	0x3d3ccd86	0.04609444
60	0xbcb34e08	-0.021887794
61	0x3c1df73a	0.009641463
62	0x3dd526cf	0.10407793
63	0x3d31eda7	0.043439534
64	0x3d0aebd5	0.033916313
65	0x3c3f4c4c	0.011675905
66	0x3d8f2690	0.06989777
67	0x3d900c00	0.07033539
68	0x3c84002b	0.016113361
69	0x3ddf3324	0.10898426
70	0x3da47715	0.080305256
71	0x3d335b21	0.04378808
72	0xbdc99f11	-0.09844793
73	0x3b4abfa7	0.0030936988
74	0xbdc8f707	-0.09812742
75	0x3cce4a81	0.02518201
76	0xbdae95a4	-0.085246354
77	0xbd627462	-0.055286773
78	0x3db5a318	0.08868998
79	0xbca65010	-0.020301849
80	0x3c511647	0.012761659
81	0xbdc319f0	-0.095264316
82	0xbe082d41	-0.13298513
83	0xbd8b0a80	-0.06789112
84	0xbd8db6f5	-0.06919662
85	0xbd936470	-0.07196891
86	0x3da59f24	0.08086994
87	0x3d9f3a2f	0.077747695
88	0xbdb22675	-0.08698741
89	0x3cb6cb4b	0.022313735
90	0xbd96daa9	-0.07365925
91	0x3d1d3306	0.038378738
92	0xbdb5a269	-0.08868868
93	0x3c6ab026	0.014324224
94	0x3af653b4	0.0018793256
95	0x3d92caac	0.07167563
96	0xbd8c82c2	-0.068608776
97	0xbd4baf16	-0.04972752
98	0xbd8c208a	-0.06842144
99	0x3cf4aa9d	0.029866511
100	0xbd49403f	-0.049133535
101	0x3c08d3cd	0.0083512785
102	0xbcce31ab	-0.025170168
103	0x3dc5439a	0.096320346
104	0xbe14c428	-0.14527953
105	0x3dba5fd2	0.091003075
106	0xbd921e04	-0.07134631
107	0xbd19d76d	-0.03755896
108	0x3d92db6d	0.071707584
109	0x3bea7b5f	0.0071558203
110	0xbd09c581	-0.03363562
111	0xbdcbc583	-0.09949782
112	0x3d40a692	0.047033854
113	0xbceabc15	-0.028654138
114	0x3d7fc360	0.062442183
115	0x3d9e31e1	0.077243574
116	0x3dfdbe71	0.123898394
117	0x3dd5fa8d	0.104481794
118	0xbdbf459c	-0.09339449
119	0xbdedf4fb	-0.11618992
120	0x3dd4119f	0.103549235
121	0x3dbf0552	0.09327187
122	0xbc735538	-0.014851861
123	0x3d5a495f	0.05329263
124	0xbddfb7a9	-0.10923702
125	0x3d4bb1ea	0.04973022
126	0xbd24ef28	-0.04026714
127	0xbcc9bc2f	-0.024625866
128	0xbd363c97	-0.044491377
129	0xbe05cb91	-0.13065936
130	0xbd6187ad	-0.05506103
131	0x3c42b742	0.011884512
132	0xba91867e	-0.0011102704
133	0xbd0f2d54	-0.034955338
134	0xbdda14cf	-0.106485
135	0xbb978b1c	-0.0046247374
136	0xbd169687	-0.036764648
137	0x3dd051e1	0.10171867
138	0x3df182d7	0.11792534
139	0xbdb5f3a5	-0.08884362
140	0x3d2cb34f	0.04216319
141	0x3c8412de	0.016122278
142	0xbd9f60f0	-0.07782161
143	0xbda39078	-0.079865396
144	0xbd768d40	-0.0601933
145	0xbdcb6162	-0.09930684
146	0x3b589855	0.0033049781
147	0xbdb0595f	-0.08610796
148	0xb8835f98	-6.2643725e-05
149	0xbc1b3380	-0.009472728
150	0x3deff7a3	0.11717155
151	0xbcaeccf8	-0.021337971
152	0x3c21ef61	0.009883733
153	0xbce02196	-0.027359765
154	0x3dd79732	0.10526885
155	0x3e0cfc1d	0.13768049
156	0xbcdd0931	-0.026981922
157	0x3e0844f2	0.1330755
158	0x3dbe639c	0.09296343
159	0xbccfa402	-0.02534676
160	0x3e1ae6b9	0.15127076
161	0x3df25890	0.11833298
162	0x3ca050d8	0.0195698
163	0x3de016fe	0.109418854
164	0x3aa105b8	0.001228503
165	0x3d625942	0.055260904
166	0xbd9447d7	-0.07240265
167	0x3cacf6da	0.021113802
168	0xbcbf3dc7	-0.023344887
169	0xbe80e573	-0.25175056
170	0xbd881dbf	-0.066462986
171	0xbd94d95a	-0.07268019
172	0x3de708d2	0.11280979
173	0xbe008735	-0.12551577
174	0xbda847fe	-0.082168564
175	0xbd9a5d6d	-0.07537351
176	0x3db8a273	0.0901536
177	0xbdd4efec	-0.10397324
178	0xbd43df9b	-0.04782067
179	0xbdf3a658	-0.11896962
180	0x3d8e7acd	0.06957016
181	0xbc6064c0	-0.013695896
182	0xbc2e42c1	-0.010636033
183	0xbda67c8d	-0.08129225
184	0xbc5b7ff5	-0.013397207
185	0xbdbf59f5	-0.0934333
186	0x3df07680	0.11741352
187	0xbdbedc62	-0.093193784
188	0xbd809250	-0.06277907
189	0xbca93f83	-0.020660168
190	0xbd993f04	-0.074827224
191	0xbcefe959	-0.029286074
192	0xbc083755	-0.008313973
193	0x3e181857	0.14853035
194	0x3dc7136c	0.09720501
195	0xbe906aef	-0.28206584
196	0x3e5d93ac	0.21638364
197	0xbe361b7f	-0.17783926
198	0xbd0d988c	-0.03456931
199	0x3dccc70a	0.09998901
200	0x3dacdba8	0.084403336
201	0x3e3f0200	0.18653107
202	0x3dde5964	0.10856894
203	0x3e598985	0.21243866
204	0xbe2a9e56	-0.16661963
205	0xbd118452	-0.03552658
206	0xbe4a1954	-0.19736224
207	0x3e688743	0.22707848
208	0xbd4c9151	-0.049943272
209	0xbd34708a	-0.044052638
210	0x3dcb26dc	0.09919521
211	0x3d856328	0.06513053
212	0xbf482b5b	-0.78191155
213	0x3d6039fa	0.05474279
214	0x3dbdf81c	0.09275839
215	0xbdfc07a4	-0.12306145
216	0xbd4e9849	-0.0504382
217	0x3e685580	0.22688866
218	0x3e11c26a	0.1423432
219	0x3e2d980d	0.16952534
220	0x3e5e4b6f	0.21708463
221	0x3e0249c6	0.12723455
222	0x3e59375e	0.21212527
223	0x3e8f5028	0.27990842
224	0xbe53a3fe	-0.20668027
225	0x3dd8ab31	0.10579527
226	0xbd7fc03e	-0.062439196
227	0xbd2e6b63	-0.04258288
228	0x3d974ca1	0.07387663
229	0xbdd3fef1	-0.103513606
230	0x3d287409	0.041126285
231	0xbe69c2ab	-0.22828166
232	0xbe260c2d	-0.16215582
233	0x3db494eb	0.08817466
234	0x3e772c64	0.24138027
235	0xbd49319b	-0.049119573
236	0x3dfd1598	0.12357634
237	0x3de5905e	0.112091765
238	0x3e556eb2	0.20843008
239	0xbe315bde	-0.17320201
240	0x3e1f035b	0.15528624
241	0xbe6c789e	-0.23092887
242	0x3da1d337	0.07901614
243	0x3e53807d	0.20654483
244	0x3d8fa604	0.07014087
245	0xbdef6b8c	-0.11690435
246	0x3e868e24	0.2628032
247	0x3dcbef2f	0.0995773
248	0x3dfa19da	0.12211962
249	0x3f30836d	0.6895054
250	0x3d961d77	0.07329839
251	0xbdac8f1b	-0.08425733
252	0xbd928e14	-0.071560055
253	0xbe0e4f3b	-0.13897412
254	0xbd231daf	-0.03982323
255	0xbde054bd	-0.109536625

lstm_stack.layers.0.bias_ih_l0 f4 [256]
0	0x3e012398	0.12611234
1	0xbc19490e	-0.0093557965
2	0xbc6d38a2	-0.014478834
3	0xbe2526c0	-0.16128063
4	0xbdc5416b	-0.09631618
5	0x3d22361e	0.03960239
6	0x3d851710	0.064985394
7	0x3d51507a	0.05110214
8	0x3cf54236	0.029938798
9	0xbd1c0658	-0.038091987
10	0x3d858bb3	0.06520786
11	0xbd916843	-0.070999645
12	0x3dd36aeb	0.10323127
13	0x3ddb4826	0.107071206
14	0xbdf5e672	-0.120068446
15	0xbbf46d3e	-0.0074593117
16	0x3bc3be50	0.0059736148
17	0xbd92a882	-0.071610466
18	0xbddda222	-0.1082194
19	0xbab1f6e8	-0.0013577612
20	0xbc580da2	-0.013186844
21	0xbdfafcaa	-0.12255223
22	0xbdb9c70f	-0.090711705
23	0xbdafe6f0	-0.0858897
24	0xbc124b9b	-0.008929159
25	0x3de996e2	0.11405732
26	0xbe83c2a6	-0.25734442
27	0x3d987c50	0.07445586
28	0x3d1b6d65	0.037946124
29	0x3d9ab784	0.07554534
30	0x3dae0a94	0.08498111
31	0x3dde1d93	0.108454846
32	0x3db380be	0.0876479
33	0x3d8717b7	0.0659632
34	0x3cd1e5c8	0.025622264
35	0x3c7b8e6b	0.015353779
36	0xbdb2965a	-0.087200835
37	0xbdc10701	-0.09425164
38	0xbdcb0950	-0.099138856
39	0xbd4a121e	-0.049333684
40	0xbd515d50	-0.05111438
41	0x39f9c4f2	0.00047639717
42	0x3db50f42	0.08840801
43	0x3de54802	0.11195375
44	0xbcb9eb8e	-0.022695329
45	0xbc96b28e	-0.018395688
46	0xbbba0dc9	-0.005677913
47	0x3d932312	0.071844235
48	0x3e114013	0.14184599
49	0x3d02d7b1	0.03194398
50	0xbdfc58f5	-0.12321655
51	0x3c8ba4b7	0.017046316
52	0x3d5b5343	0.0535462
53	0xbcac0794	-0.020999707
54	0xbd4424cf	-0.047886666
55	0xbd864e62	-0.06557919
56	0x3dda9aed	0.10674081
57	0xbce29e60	-0.02766341
58	0xbddd3fca	-0.108031824
59	0xbd97fa5a	-0.07420798
60	0xbcac8c7c	-0.021063082
61	0xbb273b84	-0.0025517652
62	0xbd9c723b	-0.07638975
63	0xbb5a0717	-0.0033268386
64	0xbd2f9120	-0.04286301
65	0x3d6b964e	0.05751639
66	0xbd023d4f	-0.03179675
67	0x3d237a8b	0.039911788
68	0x3bd6f21c	0.0065596234
69	0xbd02a388	-0.031894237
70	0x3d0fe7d0	0.035133183
71	0x3de2272f	0.1104263
72	0x3d982c85	0.074303664
73	0xbdcac5a7	-0.099009804
74	0xbdbfa500	-0.09357643
75	0x3e034593	0.12819509
76	0xbdddda6f	-0.108326785
77	0x3de9debf	0.114194386
78	0x3d5ef25e	0.054430358
79	0xbdbc32e2	-0.091893926
80	0xbd97c5b1	-0.074107535
81	0xbce4da20	-0.027936041
82	0xbda1dc6c	-0.0790337
83	0xbdf6eaf3	-0.12056532
84	0x3d3b5e1f	0.045744058
85	0x3dd9df34	0.10638276
86	0xbdd03e6f	-0.10168158
87	0xbddf3d1e	-0.10900329
88	0xbda1a5a7	-0.07892924
89	0xbd13e8be	-0.036110632
90	0xbdf8be3e	-0.12145661
91	0xbdfaf972	-0.12254609
92	0xbd518d0b	-0.0511599
93	0x38c93af9	9.5954114e-05
94	0xbc7169a2	-0.0147346575
95	0xbd9c5708	-0.076337874
96	0x3c9cb1d0	0.019127756
97	0xbdd1773f	-0.102278225
98	0xbdba1f54	-0.090880066
99	0x3d98b0d0	0.07455599
100	0xbd9321f2	-0.07184209
101	0x3d8920b4	0.06695691
102	0xbd05da72	-0.03267903
103	0x3dc6f04a	0.097138
104	0x3e317d7e	0.17333028
105	0xbc4bc98c	-0.012438189
106	0x3c3c6318	0.011498235
107	0x3dc2eff6	0.09518425
108	0xbddf669c	-0.10908243
109	0x3d4ab3f5	0.049488027
110	0x3de32a9f	0.11092114
111	0xbd86bd72	-0.065791026
112	0x3d6665fa	0.056249596
113	0xbcc96b87	-0.024587406
114	0x3d2aeb94	0.04172857
115	0x39fe6417	0.00048521228
116	0xbda0be98	-0.07848853
117	0x3da5886e	0.080826625
118	0xbdb1ed45	-0.08687834
119	0x3dec7903	0.11546519
120	0x3d186380	0.037204266
121	0xbde46970	-0.11152923
122	0x3d88f5dc	0.06687519
123	0x3d8159bd	0.06315944
124	0xbd622ead	-0.055220295
125	0xbcd47cd4	-0.025938429
126	0x3df593ad	0.119910575
127	0x3d434fc8	0.047683507
128	0xbdf33c3e	-0.11876725
129	0x3cf2f262	0.029656593
130	0x3d972f92	0.0738212
131	0xbd7e5032	-0.0620882
132	0x3d945981	0.07243634
133	0xbdeb70dc	-0.114961356
134	0x3cdd9802	0.027050022
135	0x3cc7501a	0.024330188
136	0xbc8102b5	-0.015748361
137	0x3d62c448	0.05536297
138	0x3dced1d3	0.100986145
139	0x3c1e7281	0.009670855
140	0x3d28c59b	0.041204076
141	0x3de456f4	0.111493975
142	0x3d10cfce	0.035354428
143	0xbd15794b	-0.036492627
144	0x3d748293	0.059694838
145	0x3d0c7f0b	0.034300845
146	0x3c82bf6a	0.015960414
147	0xbd748982	-0.05970145
148	0xbdbd889a	-0.0925457
149	0x3d740c24	0.05958189
150	0x3de52453	0.11188569
151	0xbd52eedc	-0.051497325
152	0xbd14f625	-0.036367554
153	0xbd69649c	-0.056980714
154	0xbd69ace4	-0.057049647
155	0x3d5dc8db	0.05414663
156	0x3d51cdff	0.051221844
157	0x3cc76425	0.024339745
158	0x3bdf4603	0.006813766
159	0xbdbfe55e	-0.0936992
160	0xbd5b996a	-0.053613104
161	0x3d425aae	0.04744976
162	0x3ddafaf9	0.106924005
163	0xbccfc248	-0.025361195
164	0x3d9f8d96	0.07790677
165	0xbdb48cf2	-0.08815946
166	0xbd75ca32	-0.06000728
167	0xbc3d13ed	-0.011540395
168	0x3dacfdf2	0.08446874
169	0x3de31773	0.11088457
170	0x3d93614e	0.07196294
171	0x3d4ab65a	0.04949031
172	0x3c57e920	0.01317814
173	0x3da8f9ca	0.082507685
174	0xbd969866	-0.073532864
175	0x3d36a7fe	0.044593804
176	0xbdc16972	-0.0944394
177	0x3df8c16a	0.12146266
178	0xbd9fb555	-0.07798258
179	0x3db4b6a3	0.08823898
180	0x3dfdbf36	0.12389986
181	0x3dcdfa01	0.1005745
182	0xbdc15887	-0.094407134
183	0x3cbf4358	0.023347542
184	0xbd871f5c	-0.06597778
185	0xbcae00f2	-0.021240685
186	0xbc9eafb5	-0.019370893
187	0x3dac9430	0.08426702
188	0xbd2e0007	-0.042480495
189	0xbb8d92eb	-0.0043204925
190	0xbc4ab7c8	-0.012372918
191	0x3cadc6f4	0.021213032
192	0xbe080aa1	-0.13285305
193	0x3bb85c57	0.005626242
194	0xbd9e9cff	-0.077447884
195	0x3c80ce8e	0.015723493
196	0xbd0f51d3	-0.034990143
197	0xbd6cbbf1	-0.057796422
198	0x3db35584	0.08756545
199	0x3dddbe7d	0.108273484
200	0x3ca2ef5d	0.019889528
201	0x3e062e21	0.13103534
202	0x3cb50c39	0.022100555
203	0x3d47f5c7	0.048818376
204	0x3d5825a6	0.05277028
205	0x3b85b5dd	0.0040805177
206	0xbbbab968	-0.0056983717
207	0xbd97dbc6	-0.07414965
208	0x3d9e73d6	0.07736938
209	0xbd8ae3a1	-0.06781698
210	0xbd12950c	-0.035786673
211	0xbd898c6d	-0.06716237
212	0x3dae7d9a	0.0852005
213	0x3dc0db31	0.094168074
214	0xbc91dca4	-0.017805405
215	0xbd28b845	-0.041191358
216	0xbd478aa7	-0.048716214
217	0x3d37f3e3	0.044910323
218	0x3d82d164	0.06387594
219	0x3c73c580	0.014878631
220	0x3d015d21	0.031582955
221	0x3ce2c202	0.0276804
222	0x3d22bb6a	0.039729513
223	0xbd2bc8b4	-0.041939452
224	0x3d540529	0.051762734
225	0x3d867bee	0.065666065
226	0x3dc6c768	0.097060025
227	0xbdc83c79	-0.09777159
228	0x3ca7fba3	0.020505732
229	0xbc58d747	-0.01323492
230	0xbcd7fa7a	-0.026364554
231	0xbca50546	-0.020144116
232	0x3dc84cd3	0.09780278
233	0x3dfec651	0.124401696
234	0x3d8c6782	0.0685568
235	0x3da9b1c4	0.08285859
236	0x3deb41ec	0.11487183
237	0xbdbfadee	-0.09359346
238	0x3bd45836	0.006480242
239	0xbd2e5081	-0.042557243
240	0xbdd1fe6d	-0.10253606
241	0x3e0244a6	0.127215
242	0x3d6827a9	0.056678448
243	0xbdcf17f9	-0.10111994
244	0xbdcdce2e	-0.10049091
245	0xbd3346bf	-0.04376864
246	0xbd84d94e	-0.0648676
247	0xbd7f4c3d	-0.062328566
248	0xbde010be	-0.10940693
249	0x3d7ce5f5	0.06174274
250	0x3d36333b	0.04448245
251	0xbd414b1c	-0.04719077
252	0x3dd6c2ea	0.10486396
253	0xbe1233f0	-0.14277625
254	0x3d278198	0.040895075
255	0x3de92d1d	0.11385558

lstm_stack.layers.0.bias_hh_l0 f4 [256]
0	0xbd970fc7	-0.07376056
1	0xbdac50f0	-0.08413875
2	0xbdf0d909	-0.11760146
3	0xbd8c3b50	-0.068472505
4	0x3d163971	0.036675874
5	0x3db1bf0f	0.0867902
6	0xbd032129	-0.032014046
7	0xbb95833a	-0.0045627626
8	0xbc996752	-0.018726025
9	0x3c247420	0.010037452
10	0xbd065dc5	-0.03280427
11	0x3aabd6ff	0.0013110338
12	0xbd8d600d	-0.06903086
13	0xbd717e3a	-0.05895827
14	0x3d949ada	0.07256098
15	0x3e070a4d	0.13187523
16	0x3cacdc2a	0.021101076
17	0x3c932dc6	0.017966162
18	0xbe5f0967	-0.2178093
19	0x3d6d867c	0.057989582
20	0x3e0ade4b	0.1356136
21	0x3d402238	0.046907634
22	0x3de84e13	0.113430165
23	0xbc4c7d2a	-0.012481013
24	0xbd33f710	-0.04393679
25	0xbdc4e870	-0.096146464
26	0xbdfa312b	-0.12216409
27	0x3d2388b2	0.039925285
28	0xbd319aa3	-0.043360364
29	0x3c449536	0.011998465
30	0x3e116874	0.14200002
31	0x3dc783d3	0.0974194
32	0xbd93724a	-0.07199533
33	0x3d5bc49f	0.05365431
34	0xbdd3ca26	-0.10341291
35	0x3d9b2ae5	0.07576541
36	0xbcb3ed02	-0.0219636
37	0xbd80e84d	-0.06294308
38	0x3cdf1917	0.027233643
39	0x3d1a4b74	0.037669614
40	0xbd384404	-0.04498674
41	0x3e180ca9	0.1484858
42	0xbd55ecba	-0.052227713
43	0x3d8a87b6	0.06764166
44	0xbdd6ce30	-0.10488546
45	0xbc56083b	-0.013063486
46	0x3dfa64fc	0.122262925
47	0x3dc8cdd4	0.098048836
48	0xbd8fb157	-0.07016247
49	0x3d9788c3	0.07399132
50	0xbd09cbe7	-0.033641722
51	0x3df2cded	0.118556835
52	0x3d4d1eeb	0.050078314
53	0x3cce1594	0.025156774
54	0xbe104848	-0.14090073
55	0xbd9a4826	-0.075332925
56	0x3de47f59	0.11157102
57	0xbcb71f69	-0.022353845
58	0xbcf05860	-0.029339015
59	0x3d1bf704	0.03807737
60	0x3d4a1c65	0.049343485
61	0xbc932b02	-0.017964844
62	0xbd057730	-0.03258437
63	0xbdb845bf	-0.08997678
64	0x3d9ab898	0.0755474
65	0xbe02d4a5	-0.1277643
66	0xbdf7e00f	-0.12103283
67	0x3e1cd0be	0.15314004
68	0xbdcaba6a	-0.09898837
69	0x3d633830	0.055473506
70	0xbd017ad5	-0.031611282
71	0xbde23415	-0.1104509
72	0x3e132527	0.14369641
73	0x3d8980ab	0.067139946
74	0xbdc7c778	-0.097548425
75	0x3dae5769	0.08512766
76	0x3db6f6d3	0.08933797
77	0xbdf2e913	-0.11860862
78	0x3d990127	0.07470923
79	0x3d332d14	0.04374416
80	0x3d2ab13d	0.041672934
81	0xbd8e9d7d	-0.06963632
82	0x3d7be36c	0.061496183
83	0xbda3bd85	-0.07995132
84	0x3e0c7ad9	0.13718738
85	0x3ca295ff	0.019846914
86	0x3de5b293	0.11215701
87	0xbdeb95d2	-0.11503185
88	0x3dd40187	0.10351854
89	0xbd0c21f1	-0.034212057
90	0xbc0e9f6a	-0.008704999
91	0x3dfe0d1a	0.12404843
92	0xbdf72b02	-0.1206875
93	0x3d48349d	0.0488783
94	0x3dc188af	0.094498985
95	0xbc4fea3f	-0.012690126
96	0xbd234008	-0.039855987
97	0xbd24f970	-0.040276945
98	0xbddee0c4	-0.108827144
99	0xbd4134a8	-0.047169358
100	0x3b3e327e	0.0029021795
101	0x3d81f540	0.06345606
102	0x3d2449f8	0.040109605
103	0x3dd91bf6	0.10601036
104	0x3ddc81a7	0.10766917
105	0xbda42274	-0.08014384
106	0x3d0d2e66	0.034468077
107	0xbdd74742	-0.10511638
108	0xbd0cc4ae	-0.034367256
109	0xbcda822e	-0.026673403
110	0x3d4e8193	0.05041654
111	0x3c75faab	0.015013377
112	0x3de0ca21	0.10976053
113	0x3dbe5a83	0.092946075
114	0xbc2501f6	-0.010071268
115	0xbc664a08	-0.014055736
116	0x3c92ce54	0.01792065
117	0x3d32fc20	0.043697476
118	0xbd941752	-0.072310105
119	0xbdb387e7	-0.08766156
120	0xbdaf8eba	-0.08572145
121	0xbda6af28	-0.08138877
122	0xbd70ae03	-0.0587597
123	0xbd4825a7	-0.048864033
124	0xbdb3f9f6	-0.08787911
125	0xbd80980f	-0.06279003
126	0xbd1b6302	-0.037936218
127	0xbde023e9	-0.10944349
128	0xbd33617c	-0.04379414
129	0x3dbe753c	0.092997044
130	0x3d3a2dc4	0.0454538
131	0xbcd101f1	-0.025513621
132	0xbc27576c	-0.010213714
133	0x3ca1b760	0.01974076
134	0x3d33d093	0.043900084
135	0xbd814303	-0.063116096
136	0x3dce0699	0.10059852
137	0x3a008500	0.0004902631
138	0x3dc0eb3d	0.09419868
139	0xbd75ca28	-0.060007244
140	0xbc3be30c	-0.011467706
141	0x3dd8a97c	0.105792016
142	0x3d1411fe	0.03614997
143	0x3d78856a	0.06067411
144	0x3cf3d22a	0.0297633
145	0xbd6238aa	-0.05522982
146	0x3da6b136	0.08139269
147	0xbda2e1fc	-0.07953259
148	0xbd03a0a4	-0.03213562
149	0xbcd31318	-0.02576594
150	0x3d9de391	0.077094205
151	0x3dc39572	0.09549989
152	0xbd53a5bc	-0.05167173
153	0xbdb7b682	-0.089703575
154	0xbd61e41c	-0.055149183
155	0x3dc177d6	0.09446685
156	0x3d8184f4	0.06324187
157	0x3d8dcfc0	0.06924391
158	0x3c00edcd	0.007869196
159	0xbdad556e	-0.0846356
160	0x3c9483b6	0.01812921
161	0x3dfb4e48	0.1227079
162	0xbd52c223	-0.051454674
163	0xbd6deb4c	-0.058085725
164	0x3de78928	0.11305457
165	0xbdca8004	-0.09887698
166	0xbdeb6912	-0.1149465
167	0xbd230087	-0.039795425
168	0xbd03f904	-0.0322199
169	0x3d9db635	0.07700769
170	0x3db5ecd0	0.08883059
171	0xbd739091	-0.05946404
172	0xbcd840f8	-0.026398167
173	0xbe0193fa	-0.12654105
174	0xbd199c40	-0.037502527
175	0xbddf077f	-0.10890102
176	0x3dc571aa	0.0964082
177	0xbc7c6481	-0.015404821
178	0x3e015d97	0.12633358
179	0xbcda005e	-0.026611503
180	0x3cc95c9e	0.024580296
181	0xbd447fc5	-0.047973413
182	0x3d779bd3	0.06045134
183	0x3ccdbe38	0.025115117
184	0xbdf7f22c	-0.121067375
185	0xbde6414e	-0.11242925
186	0x3d1ab1ec	0.037767336
187	0xbdb9b648	-0.090679705
188	0x3ba802d6	0.005127291
189	0x3ddca6f0	0.10774028
190	0xbdf8ce8f	-0.12148773
191	0x3c3f42f3	0.011673677
192	0x3d43fb21	0.047846917
193	0x3da5a847	0.08088737
194	0x3e0fc8cb	0.1404144
195	0xbc6aa83c	-0.014322337
196	0xbc47bc41	-0.012190879
197	0xbc35a304	-0.011086229
198	0x3d4112c5	0.04713704
199	0x3d99efe1	0.075164564
200	0x3de893a2	0.11356284
201	0x3a0ba781	0.0005327389
202	0xbd61126c	-0.05494921
203	0xbdc8b19f	-0.097995035
204	0x3de86e8f	0.113492124
205	0xbdb068b1	-0.08613718
206	0xb914454b	-0.00014140194
207	0x3d117ca3	0.035519253
208	0x3de954a2	0.113930956
209	0x3d917317	0.0710203
210	0xbd585d84	-0.05282356
211	0xbd82b925	-0.0638297
212	0xbd90a8a6	-0.07063417
213	0xbd99a75f	-0.07502627
214	0xbce3526c	-0.027749263
215	0x3d439e2b	0.047758263
216	0x3ca2c202	0.0198679
217	0xbc8f79b6	-0.017514091
218	0xbdf4b602	-0.11948778
219	0xbd43eaca	-0.047831334
220	0x3c8fd6ab	0.017558416
221	0x3d5a66d3	0.053320717
222	0x3da2dd84	0.07952407
223	0xbd9d71d0	-0.07687724
224	0x3d884cdc	0.06655285
225	0xbdc69b70	-0.09697616
226	0x3dcd8af4	0.10036269
227	0x3bce5884	0.006297173
228	0xbcd06f1d	-0.025443608
229	0x3dcec113	0.1009542
230	0xbe1c7eca	-0.15282741
231	0xbdde8fd0	-0.10867274
232	0xbde9efcf	-0.11422693
233	0x3dbe5303	0.09293177
234	0xbdc8939e	-0.09793781
235	0xbdef7a68	-0.11693269
236	0xbda11392	-0.07865061
237	0x3d19e5d2	0.03757269
238	0x3dfc1abf	0.12309789
239	0x3d2f0467	0.042728808
240	0x3c10a6b6	0.0088288095
241	0xbd84f5b8	-0.0649218
242	0xbc520aab	-0.012819926
243	0xbcd1deb2	-0.025618885
244	0xbdfba1d2	-0.12286724
245	0x3d2c22d5	0.042025406
246	0x3dcde730	0.10053861
247	0xbd92c2f6	-0.07166092
248	0xbdc8569e	-0.09782146
249	0xbdba68a5	-0.091019906
250	0xbd4d48a3	-0.0501181
251	0x3dd6641a	0.104683116
252	0xbd7983e4	-0.060916796
253	0x3d14f3e9	0.036365423
254	0xbdf20612	-0.11817564
255	0x3db4147b	0.08792969

lstm_stack.layers.1.weight_ih_l0 f4 [256, 64]
0	0xbd800be2	-0.062522665
1	0x3e59e026	0.21276912
2	0xbde834a1	-0.11338163
3	0x3e150efd	0.14556499
4	0x3d3d060e	0.046148352
5	0x3dbbf702	0.091779724
6	0xbd683003	-0.056686413
7	0x3d92bab0	0.07164514
8	0x3bc898b7	0.0061217207
9	0x3c48848c	0.012238633
10	0xbe2c6343	-0.1683474
11	0xbd6e5940	-0.058190584
12	0x3da0d301	0.07852746
13	0x3da9d938	0.08293384
14	0x3e0cf8fd	0.13766856
15	0xbde057db	-0.10954257
16	0x3dd9780f	0.106186025
17	0x3d9be237	0.076115064
18	0x3d61930a	0.055071868
19	0xbddb4d9c	-0.10708162
20	0xbd8c4cef	-0.068506114
21	0xbd04c201	-0.03241158
22	0xbd963db2	-0.07335986
23	0xbdb8cf4c	-0.09023914
24	0x3e382a48	0.17984879
25	0x3d3f8691	0.046759192
26	0xbdfc46db	-0.12318202
27	0x3daa8ef4	0.083280474
28	0xbdbc0e4a	-0.09182413
29	0x3dc75c52	0.097344056
30	0x3d3d235d	0.046176303
31	0xbdfae2fd	-0.12250326
32	0xbde37f07	-0.11108213
33	0x3db13dbc	0.08654353
34	0xbd1751aa	-0.036943115
35	0xbccccb63	-0.024999326
36	0xbd79976a	-0.060935415
37	0xbbb00948	-0.0053722
38	0x3dca7168	0.09884912
39	0xbc3c712d	-0.011501593
40	0xbd598008	-0.053100616
41	0xbe1edcb9	-0.15513887
42	0x3c8ddd14	0.017317332
43	0xbd6e3355	-0.058154423
44	0xbde654a9	-0.112466164
45	0xbe00a0a1	-0.12561275
46	0xbdc50376	-0.09619801
47	0x3db94a12	0.09047331
48	0xbd896d11	-0.06710256
49	0x3dcd5e87	0.10027795
50	0xbc94efc6	-0.01818074
51	0xbe2bafc1	-0.16766264
52	0xbd7bb33e	-0.061450236
53	0x3d82853c	0.06373069
54	0xbe0b834a	-0.13624302
55	0xbd59609f	-0.05307066
56	0xbce0dfca	-0.027450461
57	0x3d9adcbc	0.07561633
58	0xbe042a88	-0.1290685
59	0x3c9a3db7	0.018828256
60	0xbda80c7e	-0.08205508
61	0x3a783a64	0.000946915
62	0xbccb9a3b	-0.024853816
63	0x3e20911d	0.15680356
64	0x3b702264	0.0036641592
65	0x3d845af9	0.06462664
66	0x3d204c0a	0.039135017
67	0x3e4229bd	0.18961234
68	0x3d8b1f4a	0.06793077
69	0xbd003dd2	-0.031308956
70	0x3d1c8ef3	0.038222264
71	0x3da438f8	0.080186784
72	0x3e181caa	0.14854684
73	0xbc051e8c	-0.008124959
74	0x3cc30d11	0.023809941
75	0xbe189eb8	-0.14904296
76	0xbd7eeaf0	-0.062235773
77	0xbc46f3ba	-0.01214307
78	0x3d8436bf	0.064557545
79	0x3ce7263b	0.028216472
80	0xbd7c2de0	-0.061567187
81	0x3d56c779	0.052436326
82	0xbe045a27	-0.12925015
83	0x3c1b829b	0.009491588
84	0xbd760cef	-0.06007093
85	0xbdf93cae	-0.12169777
86	0xbdc36cf1	-0.09542263
87	0x3de3e9c4	0.11128572
88	0x3e0db8e2	0.13840058
89	0xbc572553	-0.013131457
90	0xbc9bb5e6	-0.019007634
91	0x3d8a8455	0.067635216
92	0x39160010	0.00014305138
93	0x3dbaa61b	0.09113713
94	0xbe10a0d4	-0.14123851
95	0x3db39a1b	0.08769628
96	0x3bb28b06	0.005448702
97	0xbd5426f4	-0.05179496
98	0x3e13c9bc	0.14432424
99	0x3d649f10	0.055815756
100	0xbda48606	-0.080333754
101	0xbc0ca56b	-0.008584361
102	0x3c8d61ba	0.017258514
103	0x3da18688	0.07886988
104	0x3dc31438	0.09525341
105	0xbc4d7609	-0.012540349
106	0x3cd0bcd2	0.025480662
107	0x3cedaeb3	0.029013967
108	0xbc5cb34d	-0.013470483
109	0xbd48f5d5	-0.04906257
110	0x3cde8cda	0.027166773
111	0x3d610448	0.054935724
112	0x3a9b4043	0.0011844713
113	0x3e0ad95e	0.13559482
114	0xbce39841	-0.027782561
115	0x3d92fcad	0.071771
116	0x3d5a22d1	0.05325586
117	0x3dfea986	0.12434678
118	0xbe1fc1d3	-0.15601282
119	0xbc91fc02	-0.017820362
120	0x3dfdf13a	0.12399526
121	0x3c1b789b	0.009489204
122	0xbd89966e	-0.06718145
123	0x3d3289e5	0.043588538
124	0xbc816128	-0.015793398
125	0xbdcfbef9	-0.10143847
126	0x3dee0a6b	0.11623081
127	0xbd7c9c0a	-0.061672248
128	0xbd2c9226	-0.042131566
129	0xbdc7984b	-0.097458445
130	0xbdc8d878	-0.09806913
131	0x3e2b9297	0.16755138
132	0xbe4eb8a0	-0.20187616
133	0xbd6badd3	-0.05753882
134	0x3dd62cf5	0.104577936
135	0x3d9e1ade	0.07719968
136	0x3d500f1c	0.05079566
137	0xbd996875	-0.07490627
138	0x3d445be0	0.04793918
139	0xbe1043ab	-0.14088313
140	0x3ca16f4a	0.019706387
141	0x3cd02838	0.025409803
142	0xbd085dcd	-0.03329258
143	0x3bb59dd7	0.0055424976
144	0x3dabffd7	0.08398407
145	0xbca76355	-0.020433107
146	0x3dc9168d	0.09818754
147	0x3cd861f9	0.026413905
148	0x3dea082a	0.114273384
149	0xbd0c9b06	-0.03432753
150	0x3deb5c81	0.11492253
151	0xbc31ffcd	-0.01086421
152	0x3e16c3a9	0.14723076
153	0xbbf3f63b	-0.0074451244
154	0x3cc7e3eb	0.024400672
155	0x3d003cfc	0.03130816
156	0x3d948858	0.07252568
157	0xbd411932	-0.04714317
158	0xbdbb1d77	-0.09136479
159	0xbd84bb42	-0.06481029
160	0x3da65917	0.08122461
161	0x3d938fe0	0.07205176
162	0xbc8656a9	-0.016398745
163	0xbdd034ac	-0.10166296
164	0x3de2984b	0.11064204
165	0xbd63e105	-0.055634517
166	0xbda9eec1	-0.08297492
167	0x3e0e23f4	0.13880903
168	0xbd7bceaa	-0.061476387
169	0xbd1ace4f	-0.037794407
170	0x3d58864b	0.052862447
171	0x3bd8b18d	0.0066129626
172	0x3b044daf	0.0020187905
173	0x3c996f0f	0.018729715
174	0xbdc446bb	-0.09583803
175	0xbb591b49	-0.0033127835
176	0xbdc1c499	-0.09461326
177	0x3d82cbfc	0.06386563
178	0x3d4c4a85	0.049875755
179	0x3d98551f	0.074381106
180	0x3cf0d3d7	0.029397888
181	0x3d1de04a	0.038543977
182	0x3e028b0f	0.12748359
183	0xbc95070f	-0.018191842
184	0xbcf30ef3	-0.029670214
185	0xbdf19d69	-0.11797602
186	0xbe13ed92	-0.14446095
187	0xbcb0e5fc	-0.02159404
188	0x3b4ab70f	0.0030931865
189	0x3e1d8024	0.15380913
190	0x3d6ff02b	0.05857865
191	0x3dc7ed92	0.0976211
192	0xbde3848c	-0.11109266
193	0xbd49f6ba	-0.049307562
194	0xbd6f9632	-0.058492847
195	0x3d6e536a	0.05818502
196	0x3db72c6d	0.089440204
197	0xbdb8f643	-0.09031346
198	0xbc917c23	-0.017759388
199	0x3d164864	0.03669013
200	0xbcb517d3	-0.022106087
201	0xbdaaa3d5	-0.0833203
202	0xbdd25000	-0.10269165
203	0x3c3f544e	0.011677815
204	0xbca9607c	-0.02067589
205	0xbcf56212	-0.02995399
206	0xbcb1303d	-0.021629447
207	0xbe12d4b7	-0.14338957
208	0x3c073286	0.008251792
209	0x3b52e146	0.003217773
210	0x3d4f4495	0.050602514
211	0x3d8baf1d	0.068205096
212	0x3dae53c4	0.08512071
213	0xbdedb1fc	-0.116062135
214	0x3cac0de8	0.021002725
215	0xbda6d3b1	-0.08145846
216	0x3d962951	0.07332099
217	0xbbaccd4b	-0.0052734963
218	0xbc799045	-0.01523215
219	0x3d6c3a1a	0.057672597
220	0xbce8ea51	-0.028432043
221	0x3a6e9836	0.00091016607
222	0x3d64f817	0.05590066
223	0x3ce53873	0.027981019
224	0x3cee0dc7	0.029059304
225	0x3c1163fc	0.008873936
226	0x3ddedd05	0.10882
227	0xbd661ae0	-0.056177974
228	0xbc1ad4a3	-0.009450111
229	0x3dd34e0e	0.10317622
230	0x3d636b78	0.055522412
231	0x3a1578f3	0.0005701922
232	0xba9c6b58	-0.0011933846
233	0xbe0a88c2	-0.13528731
234	0xbb954e9c	-0.00455649
235	0x3d44470e	0.047919326
236	0xbca0bc02	-0.0196209
237	0x3da72595	0.08161465
238	0xbd97d732	-0.07414092
239	0x3ddd3aa1	0.10802198
240	0x3d5fbb6b	0.054622095
241	0x3e02420f	0.12720512
242	0xbdb5036c	-0.08838543
243	0xbe07d1e7	-0.13263665
244	0x3b8e9309	0.004351024
245	0xbdf3b2ef	-0.11899363
246	0xbd928d44	-0.071558505
247	0xbe0d6145	-0.13806637
248	0x3d979a2f	0.07402455
249	0xbdd3ac30	-0.103355765
250	0xbcb089f2	-0.021550152
251	0x3be025a6	0.0068404255
252	0x3d7152d8	0.058916897
253	0xbe080831	-0.13284375
254	0xbc28eaef	-0.010309919
255	0x3e0801c1	0.13281919

lstm_stack.layers.1.weight_hh_l0 f4 [256, 64]
0	0xbd0f0b49	-0.03492287
1	0xbce20194	-0.027588643
2	0x3e015de0	0.12633467
3	0xbe27d833	-0.16391067
4	0x3e3ae704	0.18252188
5	0x3ded9d04	0.11602214
6	0xbdbc0e76	-0.09182446
7	0x3d94cc87	0.07265573
8	0xbdfa363e	-0.12217377
9	0x3e06600d	0.13122578
10	0xbd7538de	-0.059868686
11	0xbdbafd38	-0.09130329
12	0x3cce715f	0.025200544
13	0x3daf72bb	0.08566805
14	0xbe410598	-0.1884979
15	0xbd88e6bc	-0.06684634
16	0xbce7a0b0	-0.028274864
17	0x3d5818cd	0.052758027
18	0x3c0997a8	0.008397974
19	0x3e4cea89	0.20011343
20	0xbdbdf33d	-0.0927491
21	0xbd7987d2	-0.060920544
22	0xbdff4a82	-0.12465383
23	0xbe288b92	-0.16459492
24	0xbdb00ef6	-0.085966036
25	0xbd6c1ee1	-0.057646636
26	0x3d74a960	0.05973184
27	0x3d810d74	0.06301394
28	0xbdf6ceb3	-0.120511435
29	0x3bce3ff1	0.0062942435
30	0xbc86a315	-0.016435185
31	0x3cbfafb3	0.02339921
32	0x3c09f4ec	0.00842021
33	0x3d093c9e	0.033505075
34	0xbdeb2e8a	-0.11483486
35	0x3dfd35cb	0.12363776
36	0xbe9be038	-0.30444503
37	0xbc74fe34	-0.014953185
38	0x3db672ef	0.089086406
39	0xbdafad95	-0.0857803
40	0x3c2057eb	0.009786586
41	0x3d5b4bcd	0.053539086
42	0xbc0f9808	-0.008764274
43	0xbd915aeb	-0.07097419
44	0x3d3cbd36	0.046078883
45	0xbe28baa1	-0.16477443
46	0x3dd12370	0.10211837
47	0xbd3d3771	-0.04619545
48	0xbc6257e7	-0.013814903
49	0xbdedb080	-0.1160593
50	0x3dd6d251	0.104893334
51	0x39e4eabe	0.00043662445
52	0x3d03e8b9	0.032204363
53	0xbd177ae4	-0.036982432
54	0x3d149e9e	0.03628408
55	0x3e62bc91	0.22142245
56	0x3d155618	0.03645906
57	0x3ba1424f	0.0049212347
58	0x3c9d32db	0.019189289
59	0xbd19b4ce	-0.037525944
60	0x3d05e0fc	0.032685265
61	0x3b7e377f	0.0038790402
62	0xbd569704	-0.052390113
63	0xbd386b37	-0.045024123
64	0xbd0944ab	-0.033512753
65	0x3c7ee6b7	0.015557936
66	0xbda193a1	-0.07889486
67	0xbd87f1c1	-0.06637908
68	0x3d09ea05	0.033670444
69	0xbc902e5a	-0.017600227
70	0xbd392b59	-0.045207355
71	0xbc901c01	-0.017591478
72	0x3d2cc480	0.042179585
73	0x3d73cd4b	0.059521955
74	0xbde9465d	-0.11390374
75	0x3d4ba640	0.049719095
76	0x3c454b30	0.012041852
77	0x3dd3860d	0.103283025
78	0xbe23364d	-0.15938683
79	0xbd339cfc	-0.043850884
80	0xbda5dc00	-0.08098602
81	0xbccdaede	-0.025107797
82	0xbcb18c4c	-0.021673344
83	0x3d472b37	0.048625197
84	0xbe1b8eb4	-0.15191156
85	0xbd6983d8	-0.0570105
86	0xbdd8efe3	-0.1059263
87	0xbd52380e	-0.05132299
88	0x3d74c12e	0.059754543
89	0x3dc5ca9f	0.096577875
90	0xbd091d0f	-0.033474978
91	0x3d95b974	0.07310763
92	0xbdf76988	-0.12080675
93	0xbd04f11c	-0.032456502
94	0x3e31087a	0.1728839
95	0x3aef1aa0	0.0018242188
96	0x3de3d541	0.11124659
97	0xbd1d33bc	-0.038379416
98	0xbe12cf6d	-0.14336939
99	0xbd9c99a7	-0.07646494
100	0xbe178872	-0.14798144
101	0x3bf0fe78	0.007354554
102	0xbd083dfc	-0.033262238
103	0x3d0147e7	0.031562712
104	0xbd9cd538	-0.07657856
105	0x3d861027	0.065460496
106	0xbd661617	-0.05617341
107	0xbd9fbe6b	-0.07799991
108	0x3d58da2b	0.052942436
109	0xbdad2af7	-0.084554605
110	0xbd9163ad	-0.0709909
111	0xbd1fe991	-0.039041106
112	0x3dc31ae2	0.09526612
113	0x3db306ab	0.08741506
114	0x3c40c603	0.01176596
115	0xbdd0d0e1	-0.101960905
116	0x3d6d6d11	0.057965342
117	0x3c8e16d4	0.01734487
118	0x3e1d569a	0.15365067
119	0xbce4b404	-0.02791787
120	0x3d11ee44	0.03562762
121	0xbd730ce3	-0.05933846
122	0x3cde9a2e	0.027173128
123	0x3d0a2e79	0.033735726
124	0xbe27f4b4	-0.1640194
125	0xbd7ea563	-0.062169444
126	0x3cf51a82	0.029919866
127	0xbdc32198	-0.09527892
128	0xbdec1838	-0.11528057
129	0x3d921615	0.07133118
130	0x3daa2178	0.08307165
131	0x3d148bf3	0.03626628
132	0xbce031a6	-0.027367424
133	0x3df4b49f	0.11948513
134	0xbd58b29c	-0.05290471
135	0xbcca99ae	-0.024731483
136	0x3de08ded	0.1096457
137	0x3e23a6f0	0.1598165
138	0xbe16798f	-0.14694808
139	0xbd8c6408	-0.06855017
140	0xbc0bc251	-0.008530215
141	0x3dcdd27e	0.10049914
142	0xbe191a8a	-0.1495153
143	0xbd071309	-0.032977138
144	0x3d96ff2b	0.07372888
145	0x3c216497	0.009850643
146	0x3d652014	0.055938795
147	0xbcc7153b	-0.024302116
148	0xbe474f79	-0.1946391
149	0xbd44f279	-0.048082802
150	0xbd067bf5	-0.03283306
151	0xbd368f3e	-0.0445702
152	0x3d738d74	0.059461072
153	0x3db906e6	0.09034519
154	0x3c85b919	0.016323613
155	0x3aec3ba4	0.0018023145
156	0xbd2bad9d	-0.041913617
157	0x3dd11140	0.10208368
158	0x3b00fe51	0.0019682834
159	0xbd52079e	-0.051276796
160	0xbddc5748	-0.10758835
161	0xbe011c76	-0.12608513
162	0x3df89837	0.12138408
163	0x3dc990c3	0.09842064
164	0x3ddf73ea	0.10910781
165	0xbd59a992	-0.05314023
166	0xbbe33758	-0.0069340877
167	0xbd4e854d	-0.050420094
168	0x3de6f8a4	0.11277893
169	0xbdf51613	-0.11967101
170	0xbd95eb87	-0.07320314
171	0xbddb1e39	-0.10699124
172	0x3e1b2ac5	0.15153034
173	0xbda9b0c0	-0.082856655
174	0xbd00453e	-0.031316034
175	0xbc01bda1	-0.007918746
176	0x3dd66efd	0.10470388
177	0xbdd8ec57	-0.10591953
178	0x3dccf595	0.100077786
179	0xbd3354f5	-0.043782193
180	0x3d95b360	0.07309604
181	0x3d829a4e	0.063770875
182	0xbcb53230	-0.022118658
183	0x3dc30b33	0.095236205
184	0x3e2e40c8	0.170169
185	0xbdea67f6	-0.1144561
186	0x3dba262d	0.09089313
187	0x3d55fdcf	0.052244004
188	0xbd045f84	-0.032317653
189	0xbdf5691e	-0.1198294
190	0xbd5e0d94	-0.054212168
191	0xbd7158e9	-0.058922682
192	0x3bf41364	0.0074486006
193	0xbe02110b	-0.12701814
194	0xbd69b6fc	-0.057059273
195	0x3dc96b9e	0.098349795
196	0x3d63eeb2	0.05564756
197	0xbdb18fcf	-0.086700074
198	0xbd166ae5	-0.036723036
199	0x3d840adc	0.06447384
200	0x3dba3477	0.09092038
201	0xbdbea8ce	-0.09309541
202	0x3cd40a54	0.025883831
203	0x3d9e5b01	0.07732201
204	0x3ce83654	0.028346218
205	0xbe18eda4	-0.14934403
206	0x3ddf1eca	0.108945444
207	0xbd944fd5	-0.07241789
208	0xbd8dd581	-0.06925488
209	0x3cf506f8	0.02991055
210	0x3dbaaf0b	0.09115418
211	0xbd48cadc	-0.049021587
212	0xbe0742eb	-0.13209121
213	0xbceaddaf	-0.02867016
214	0x3d9e8e2a	0.077419594
215	0xbbd56817	-0.0065126526
216	0xbe2f07ac	-0.1709277
217	0xbd772283	-0.060335647
218	0x3dc18632	0.09449424
219	0xbe1b581d	-0.15170331
220	0xbd77a69c	-0.060461625
221	0xbd9b4634	-0.075817496
222	0x3d353157	0.044236507
223	0xbd8a01ae	-0.067386016
224	0x3e8225ae	0.25419372
225	0x3d3bccc8	0.04584959
226	0x3e0784bb	0.13234226
227	0x3dca52d3	0.09879079
228	0xbd7d8ffa	-0.061904885
229	0x3c897fb4	0.016784526
230	0xbdcf2fc1	-0.1011653
231	0x3ceac357	0.028657598
232	0x3c11e75e	0.00890526
233	0xbe0bb760	-0.13644171
234	0xbd6526e7	-0.055945303
235	0x3b005de9	0.0019587225
236	0xbd9f50fe	-0.0777912
237	0xbe36d4ec	-0.17854661
238	0xbd1dbdc3	-0.03851105
239	0xbd86831a	-0.065679744
240	0x3d521d63	0.051297557
241	0x3d918974	0.07106295
242	0x3dcfea11	0.101520665
243	0xbde3e18d	-0.11127005
244	0x3c3fd406	0.011708265
245	0x3dfb9680	0.12284565
246	0x3caa1889	0.020763652
247	0x3d0254bb	0.031819087
248	0x3e3fadcf	0.18718646
249	0x3c3a640b	0.011376391
250	0x3b96247a	0.004581985
251	0xbe1d5db6	-0.15367779
252	0x3ddd276f	0.10798537
253	0x3d41bf19	0.047301386
254	0x3d04cfd1	0.03242475
255	0xbdc8adde	-0.097987875
